…
snapshot: 0
snapshot_prefix: "FP_Net_end2end"
average_loss: 100
iter_size: 2
I0607 20:56:35.219055 13573 solver.cpp:81] Creating training net from train_net file: models/pascal_voc/VGG16/FP_Net_end2end/train.prototxt
I0607 20:56:35.220648 13573 net.cpp:49] Initializing net from parameters: 
name: "VGG_ILSVRC_16_layers"
state {
  phase: TRAIN
}
layer {
  name: "input-data"
  type: "Python"
  top: "data"
  top: "im_info"
  top: "gt_boxes"
  python_param {
    module: "roi_data_layer.layer"
    layer: "RoIDataLayer"
    param_str: "\'num_classes\': 21"
  }
}
layer {
  name: "conv1_1"
  type: "Convolution"
  bottom: "data"
  top: "conv1_1"
  param {
    lr_mult: 0
    decay_mult: 0
  }
  param {
    lr_mult: 0
    decay_mult: 0
  }
  convolution_param {
    num_output: 64
    pad: 1
    kernel_size: 3
  }
}
layer {
  name: "relu1_1"
  type: "ReLU"
  bottom: "conv1_1"
  top: "conv1_1"
}
layer {
  name: "conv1_2"
  type: "Convolution"
  bottom: "conv1_1"
  top: "conv1_2"
  param {
    lr_mult: 0
    decay_mult: 0
  }
  param {
    lr_mult: 0
    decay_mult: 0
  }
  convolution_param {
    num_output: 64
    pad: 1
    kernel_size: 3
  }
}
layer {
  name: "relu1_2"
  type: "ReLU"
  bottom: "conv1_2"
  top: "conv1_2"
}
layer {
  name: "pool1"
  type: "Pooling"
  bottom: "conv1_2"
  top: "pool1"
  pooling_param {
    pool: MAX
    kernel_size: 2
    stride: 2
  }
}
layer {
  name: "conv2_1"
  type: "Convolution"
  bottom: "pool1"
  top: "conv2_1"
  param {
    lr_mult: 0
    decay_mult: 0
  }
  param {
    lr_mult: 0
    decay_mult: 0
  }
  convolution_param {
    num_output: 128
    pad: 1
    kernel_size: 3
  }
}
layer {
  name: "relu2_1"
  type: "ReLU"
  bottom: "conv2_1"
  top: "conv2_1"
}
layer {
  name: "conv2_2"
  type: "Convolution"
  bottom: "conv2_1"
  top: "conv2_2"
  param {
    lr_mult: 0
    decay_mult: 0
  }
  param {
    lr_mult: 0
    decay_mult: 0
  }
  convolution_param {
    num_output: 128
    pad: 1
    kernel_size: 3
  }
}
layer {
  name: "relu2_2"
  type: "ReLU"
  bottom: "conv2_2"
  top: "conv2_2"
}
layer {
  name: "pool2"
  type: "Pooling"
  bottom: "conv2_2"
  top: "pool2"
  pooling_param {
    pool: MAX
    kernel_size: 2
    stride: 2
  }
}
layer {
  name: "conv3_1"
  type: "Convolution"
  bottom: "pool2"
  top: "conv3_1"
  param {
    lr_mult: 1
  }
  param {
    lr_mult: 2
  }
  convolution_param {
    num_output: 256
    pad: 1
    kernel_size: 3
  }
}
layer {
  name: "relu3_1"
  type: "ReLU"
  bottom: "conv3_1"
  top: "conv3_1"
}
layer {
  name: "conv3_2"
  type: "Convolution"
  bottom: "conv3_1"
  top: "conv3_2"
  param {
    lr_mult: 1
  }
  param {
    lr_mult: 2
  }
  convolution_param {
    num_output: 256
    pad: 1
    kernel_size: 3
  }
}
layer {
  name: "relu3_2"
  type: "ReLU"
  bottom: "conv3_2"
  top: "conv3_2"
}
layer {
  name: "conv3_3"
  type: "Convolution"
  bottom: "conv3_2"
  top: "conv3_3"
  param {
    lr_mult: 1
  }
  param {
    lr_mult: 2
  }
  convolution_param {
    num_output: 256
    pad: 1
    kernel_size: 3
  }
}
layer {
  name: "relu3_3"
  type: "ReLU"
  bottom: "conv3_3"
  top: "conv3_3"
}
layer {
  name: "pool3"
  type: "Pooling"
  bottom: "conv3_3"
  top: "pool3"
  pooling_param {
    pool: MAX
    kernel_size: 2
    stride: 2
  }
}
layer {
  name: "conv4_1"
  type: "Convolution"
  bottom: "pool3"
  top: "conv4_1"
  param {
    lr_mult: 1
  }
  param {
    lr_mult: 2
  }
  convolution_param {
    num_output: 512
    pad: 1
    kernel_size: 3
  }
}
layer {
  name: "relu4_1"
  type: "ReLU"
  bottom: "conv4_1"
  top: "conv4_1"
}
layer {
  name: "conv4_2"
  type: "Convolution"
  bottom: "conv4_1"
  top: "conv4_2"
  param {
    lr_mult: 1
  }
  param {
    lr_mult: 2
  }
  convolution_param {
    num_output: 512
    pad: 1
    kernel_size: 3
  }
}
layer {
  name: "relu4_2"
  type: "ReLU"
  bottom: "conv4_2"
  top: "conv4_2"
}
layer {
  name: "conv4_3"
  type: "Convolution"
  bottom: "conv4_2"
  top: "conv4_3"
  param {
    lr_mult: 1
  }
  param {
    lr_mult: 2
  }
  convolution_param {
    num_output: 512
    pad: 1
    kernel_size: 3
  }
}
layer {
  name: "relu4_3"
  type: "ReLU"
  bottom: "conv4_3"
  top: "conv4_3"
}
layer {
  name: "pool4"
  type: "Pooling"
  bottom: "conv4_3"
  top: "pool4"
  pooling_param {
    pool: MAX
    kernel_size: 2
    stride: 2
  }
}
layer {
  name: "conv5_1"
  type: "Convolution"
  bottom: "pool4"
  top: "conv5_1"
  param {
    lr_mult: 1
  }
  param {
    lr_mult: 2
  }
  convolution_param {
    num_output: 512
    pad: 1
    kernel_size: 3
  }
}
layer {
  name: "relu5_1"
  type: "ReLU"
  bottom: "conv5_1"
  top: "conv5_1"
}
layer {
  name: "conv5_2"
  type: "Convolution"
  bottom: "conv5_1"
  top: "conv5_2"
  param {
    lr_mult: 1
  }
  param {
    lr_mult: 2
  }
  convolution_param {
    num_output: 512
    pad: 1
    kernel_size: 3
  }
}
layer {
  name: "relu5_2"
  type: "ReLU"
  bottom: "conv5_2"
  top: "conv5_2"
}
layer {
  name: "conv5_3"
  type: "Convolution"
  bottom: "conv5_2"
  top: "conv5_3"
  param {
    lr_mult: 1
  }
  param {
    lr_mult: 2
  }
  convolution_param {
    num_output: 512
    pad: 1
    kernel_size: 3
  }
}
layer {
  name: "relu5_3"
  type: "ReLU"
  bottom: "conv5_3"
  top: "conv5_3"
}
layer {
  name: "p1_conv"
  type: "Convolution"
  bottom: "conv5_3"
  top: "p1_conv"
  param {
    lr_mult: 1
  }
  param {
    lr_mult: 2
  }
  convolution_param {
    num_output: 256
    pad: 1
    kernel_size: 3
  }
}
layer {
  name: "p1_upsample"
  type: "Deconvolution"
  bottom: "p1_conv"
  top: "p1_upsample"
  param {
    lr_mult: 0
    decay_mult: 0
  }
  convolution_param {
    num_output: 256
    bias_term: false
    pad: 0
    kernel_size: 1
    group: 256
    stride: 2
    weight_filler {
      type: "bilinear"
    }
  }
}
layer {
  name: "p2_conv"
  type: "Convolution"
  bottom: "conv4_3"
  top: "p2_conv"
  param {
    lr_mult: 1
  }
  param {
    lr_mult: 2
  }
  convolution_param {
    num_output: 256
    pad: 1
    kernel_size: 3
  }
}
layer {
  name: "conadd"
  type: "Concat"
  bottom: "p1_upsample"
  bottom: "p2_conv"
  top: "conadd"
  concat_param {
    axis: 1
  }
}
layer {
  name: "rpn_conv/3x3"
  type: "Convolution"
  bottom: "p1_upsample"
  top: "rpn/output"
  param {
    lr_mult: 1
  }
  param {
    lr_mult: 2
  }
  convolution_param {
    num_output: 512
    pad: 1
    kernel_size: 3
    stride: 1
    weight_filler {
      type: "gaussian"
      std: 0.01
    }
    bias_filler {
      type: "constant"
      value: 0
    }
  }
}
layer {
  name: "rpn_relu/3x3"
  type: "ReLU"
  bottom: "rpn/output"
  top: "rpn/output"
}
layer {
  name: "rpn_cls_score"
  type: "Convolution"
  bottom: "rpn/output"
  top: "rpn_cls_score"
  param {
    lr_mult: 1
  }
  param {
    lr_mult: 2
  }
  convolution_param {
    num_output: 18
    pad: 0
    kernel_size: 1
    stride: 1
    weight_filler {
      type: "gaussian"
      std: 0.01
    }
    bias_filler {
      type: "constant"
      value: 0
    }
  }
}
layer {
  name: "rpn_bbox_pred"
  type: "Convolution"
  bottom: "rpn/output"
  top: "rpn_bbox_pred"
  param {
    lr_mult: 1
  }
  param {
    lr_mult: 2
  }
  convolution_param {
    num_output: 36
    pad: 0
    kernel_size: 1
    stride: 1
    weight_filler {
      type: "gaussian"
      std: 0.01
    }
    bias_filler {
      type: "constant"
      value: 0
    }
  }
}
layer {
  name: "rpn_cls_score_reshape"
  type: "Reshape"
  bottom: "rpn_cls_score"
  top: "rpn_cls_score_reshape"
  reshape_param {
    shape {
      dim: 0
      dim: 2
      dim: -1
      dim: 0
    }
  }
}
layer {
  name: "rpn-data"
  type: "Python"
  bottom: "rpn_cls_score"
  bottom: "gt_boxes"
  bottom: "im_info"
  bottom: "data"
  top: "rpn_labels"
  top: "rpn_bbox_targets"
  top: "rpn_bbox_inside_weights"
  top: "rpn_bbox_outside_weights"
  python_param {
    module: "rpn.anchor_target_layer"
    layer: "AnchorTargetLayer"
    param_str: "\'feat_stride\': 16"
  }
}
layer {
  name: "rpn_loss_cls"
  type: "SoftmaxWithLoss"
  bottom: "rpn_cls_score_reshape"
  bottom: "rpn_labels"
  top: "rpn_cls_loss"
  loss_weight: 1
  propagate_down: true
  propagate_down: false
  loss_param {
    ignore_label: -1
    normalize: true
  }
}
layer {
  name: "rpn_loss_bbox"
  type: "SmoothL1Loss"
  bottom: "rpn_bbox_pred"
  bottom: "rpn_bbox_targets"
  bottom: "rpn_bbox_inside_weights"
  bottom: "rpn_bbox_outside_weights"
  top: "rpn_loss_bbox"
  loss_weight: 1
  smooth_l1_loss_param {
    sigma: 3
  }
}
layer {
  name: "rpn_cls_prob"
  type: "Softmax"
  bottom: "rpn_cls_score_reshape"
  top: "rpn_cls_prob"
}
layer {
  name: "rpn_cls_prob_reshape"
  type: "Reshape"
  bottom: "rpn_cls_prob"
  top: "rpn_cls_prob_reshape"
  reshape_param {
    shape {
      dim: 0
      dim: 18
      dim: -1
      dim: 0
    }
  }
}
layer {
  name: "proposal"
  type: "Python"
  bottom: "rpn_cls_prob_reshape"
  bottom: "rpn_bbox_pred"
  bottom: "im_info"
  top: "rpn_rois"
  python_param {
    module: "rpn.proposal_layer"
    layer: "ProposalLayer"
    param_str: "\'feat_stride\': 16"
  }
}
layer {
  name: "p2_rpn_conv/3x3"
  type: "Convolution"
  bottom: "conadd"
  top: "p2_rpn/output"
  param {
    lr_mult: 1
  }
  param {
    lr_mult: 2
  }
  convolution_param {
    num_output: 512
    pad: 1
    kernel_size: 3
    stride: 1
    weight_filler {
      type: "gaussian"
      std: 0.01
    }
    bias_filler {
      type: "constant"
      value: 0
    }
  }
}
layer {
  name: "p2_rpn_relu/3x3"
  type: "ReLU"
  bottom: "p2_rpn/output"
  top: "p2_rpn/output"
}
layer {
  name: "p2_rpn_cls_score"
  type: "Convolution"
  bottom: "p2_rpn/output"
  top: "p2_rpn_cls_score"
  param {
    lr_mult: 1
  }
  param {
    lr_mult: 2
  }
  convolution_param {
    num_output: 18
    pad: 0
    kernel_size: 1
    stride: 1
    weight_filler {
      type: "gaussian"
      std: 0.01
    }
    bias_filler {
      type: "constant"
      value: 0
    }
  }
}
layer {
  name: "p2_rpn_bbox_pred"
  type: "Convolution"
  bottom: "p2_rpn/output"
  top: "p2_rpn_bbox_pred"
  param {
    lr_mult: 1
  }
  param {
    lr_mult: 2
  }
  convolution_param {
    num_output: 36
    pad: 0
    kernel_size: 1
    stride: 1
    weight_filler {
      type: "gaussian"
      std: 0.01
    }
    bias_filler {
      type: "constant"
      value: 0
    }
  }
}
layer {
  name: "p2_rpn_cls_score_reshape"
  type: "Reshape"
  bottom: "p2_rpn_cls_score"
  top: "p2_rpn_cls_score_reshape"
  reshape_param {
    shape {
      dim: 0
      dim: 2
      dim: -1
      dim: 0
    }
  }
}
layer {
  name: "p2_rpn-data"
  type: "Python"
  bottom: "p2_rpn_cls_score"
  bottom: "gt_boxes"
  bottom: "im_info"
  bottom: "data"
  top: "p2_rpn_labels"
  top: "p2_rpn_bbox_targets"
  top: "p2_rpn_bbox_inside_weights"
  top: "p2_rpn_bbox_outside_weights"
  python_param {
    module: "rpn.anchor_target_layer"
    layer: "AnchorTargetLayer"
    param_str: "\'feat_stride\': 16"
  }
}
layer {
  name: "p2_rpn_loss_cls"
  type: "SoftmaxWithLoss"
  bottom: "p2_rpn_cls_score_reshape"
  bottom: "p2_rpn_labels"
  top: "p2_rpn_cls_loss"
  loss_weight: 1
  propagate_down: true
  propagate_down: false
  loss_param {
    ignore_label: -1
    normalize: true
  }
}
layer {
  name: "p2_rpn_loss_bbox"
  type: "SmoothL1Loss"
  bottom: "p2_rpn_bbox_pred"
  bottom: "p2_rpn_bbox_targets"
  bottom: "p2_rpn_bbox_inside_weights"
  bottom: "p2_rpn_bbox_outside_weights"
  top: "p2_rpn_loss_bbox"
  loss_weight: 1
  smooth_l1_loss_param {
    sigma: 3
  }
}
layer {
  name: "p2_rpn_cls_prob"
  type: "Softmax"
  bottom: "p2_rpn_cls_score_reshape"
  top: "p2_rpn_cls_prob"
}
layer {
  name: "p2_rpn_cls_prob_reshape"
  type: "Reshape"
  bottom: "p2_rpn_cls_prob"
  top: "p2_rpn_cls_prob_reshape"
  reshape_param {
    shape {
      dim: 0
      dim: 18
      dim: -1
      dim: 0
    }
  }
}
layer {
  name: "p2_proposal"
  type: "Python"
  bottom: "p2_rpn_cls_prob_reshape"
  bottom: "p2_rpn_bbox_pred"
  bottom: "im_info"
  top: "p2_rpn_rois"
  python_param {
    module: "rpn.proposal_layer"
    layer: "ProposalLayer"
    param_str: "\'feat_stride\': 16"
  }
}
layer {
  name: "data_all"
  type: "Concat"
  bottom: "rpn_rois"
  bottom: "p2_rpn_rois"
  top: "data_all"
  concat_param {
    axis: 0
  }
}
layer {
  name: "roi-data"
  type: "Python"
  bottom: "data_all"
  bottom: "gt_boxes"
  top: "rois"
  top: "labels"
  top: "bbox_targets"
  top: "bbox_inside_weights"
  top: "bbox_outside_weights"
  python_param {
    module: "rpn.proposal_target_layer"
    layer: "ProposalTargetLayer"
    param_str: "\'num_classes\': 21"
  }
}
layer {
  name: "roi_pool5"
  type: "ROIPooling"
  bottom: "conv5_3"
  bottom: "rois"
  top: "pool5"
  roi_pooling_param {
    pooled_h: 7
    pooled_w: 7
    spatial_scale: 0.0625
  }
}
layer {
  name: "fc6"
  type: "InnerProduct"
  bottom: "pool5"
  top: "fc6"
  param {
    lr_mult: 1
  }
  param {
    lr_mult: 2
  }
  inner_product_param {
    num_output: 4096
  }
}
layer {
  name: "relu6"
  type: "ReLU"
  bottom: "fc6"
  top: "fc6"
}
layer {
  name: "drop6"
  type: "Dropout"
  bottom: "fc6"
  top: "fc6"
  dropout_param {
    dropout_ratio: 0.5
  }
}
layer {
  name: "fc7"
  type: "InnerProduct"
  bottom: "fc6"
  top: "fc7"
  param {
    lr_mult: 1
  }
  param {
    lr_mult: 2
  }
  inner_product_param {
    num_output: 4096
  }
}
layer {
  name: "relu7"
  type: "ReLU"
  bottom: "fc7"
  top: "fc7"
}
layer {
  name: "drop7"
  type: "Dropout"
  bottom: "fc7"
  top: "fc7"
  dropout_param {
    dropout_ratio: 0.5
  }
}
layer {
  name: "cls_score"
  type: "InnerProduct"
  bottom: "fc7"
  top: "cls_score"
  param {
    lr_mult: 1
  }
  param {
    lr_mult: 2
  }
  inner_product_param {
    num_output: 21
    weight_filler {
      type: "gaussian"
      std: 0.01
    }
    bias_filler {
      type: "constant"
      value: 0
    }
  }
}
layer {
  name: "bbox_pred"
  type: "InnerProduct"
  bottom: "fc7"
  top: "bbox_pred"
  param {
    lr_mult: 1
  }
  param {
    lr_mult: 2
  }
  inner_product_param {
    num_output: 84
    weight_filler {
      type: "gaussian"
      std: 0.001
    }
    bias_filler {
      type: "constant"
      value: 0
    }
  }
}
layer {
  name: "loss_cls"
  type: "SoftmaxWithLoss"
  bottom: "cls_score"
  bottom: "labels"
  top: "loss_cls"
  loss_weight: 1
  propagate_down: true
  propagate_down: false
}
layer {
  name: "loss_bbox"
  type: "SmoothL1Loss"
  bottom: "bbox_pred"
  bottom: "bbox_targets"
  bottom: "bbox_inside_weights"
  bottom: "bbox_outside_weights"
  top: "loss_bbox"
  loss_weight: 1
}
I0607 20:56:35.221045 13573 layer_factory.hpp:77] Creating layer input-data
I0607 20:56:35.226554 13573 net.cpp:106] Creating Layer input-data
I0607 20:56:35.226573 13573 net.cpp:411] input-data -> data
I0607 20:56:35.226588 13573 net.cpp:411] input-data -> im_info
I0607 20:56:35.226594 13573 net.cpp:411] input-data -> gt_boxes
RoiDataLayer: name_to_top: {'gt_boxes': 2, 'data': 0, 'im_info': 1}
I0607 20:56:35.240749 13573 net.cpp:150] Setting up input-data
I0607 20:56:35.240775 13573 net.cpp:157] Top shape: 1 3 600 1000 (1800000)
I0607 20:56:35.240782 13573 net.cpp:157] Top shape: 1 3 (3)
I0607 20:56:35.240785 13573 net.cpp:157] Top shape: 1 4 (4)
I0607 20:56:35.240788 13573 net.cpp:165] Memory required for data: 7200028
I0607 20:56:35.240793 13573 layer_factory.hpp:77] Creating layer data_input-data_0_split
I0607 20:56:35.240803 13573 net.cpp:106] Creating Layer data_input-data_0_split
I0607 20:56:35.240813 13573 net.cpp:454] data_input-data_0_split <- data
I0607 20:56:35.240831 13573 net.cpp:411] data_input-data_0_split -> data_input-data_0_split_0
I0607 20:56:35.240844 13573 net.cpp:411] data_input-data_0_split -> data_input-data_0_split_1
I0607 20:56:35.240851 13573 net.cpp:411] data_input-data_0_split -> data_input-data_0_split_2
I0607 20:56:35.240897 13573 net.cpp:150] Setting up data_input-data_0_split
I0607 20:56:35.240911 13573 net.cpp:157] Top shape: 1 3 600 1000 (1800000)
I0607 20:56:35.240916 13573 net.cpp:157] Top shape: 1 3 600 1000 (1800000)
I0607 20:56:35.240919 13573 net.cpp:157] Top shape: 1 3 600 1000 (1800000)
I0607 20:56:35.240922 13573 net.cpp:165] Memory required for data: 28800028
I0607 20:56:35.240926 13573 layer_factory.hpp:77] Creating layer im_info_input-data_1_split
I0607 20:56:35.240933 13573 net.cpp:106] Creating Layer im_info_input-data_1_split
I0607 20:56:35.240936 13573 net.cpp:454] im_info_input-data_1_split <- im_info
I0607 20:56:35.240942 13573 net.cpp:411] im_info_input-data_1_split -> im_info_input-data_1_split_0
I0607 20:56:35.240947 13573 net.cpp:411] im_info_input-data_1_split -> im_info_input-data_1_split_1
I0607 20:56:35.240952 13573 net.cpp:411] im_info_input-data_1_split -> im_info_input-data_1_split_2
I0607 20:56:35.240957 13573 net.cpp:411] im_info_input-data_1_split -> im_info_input-data_1_split_3
I0607 20:56:35.241004 13573 net.cpp:150] Setting up im_info_input-data_1_split
I0607 20:56:35.241015 13573 net.cpp:157] Top shape: 1 3 (3)
I0607 20:56:35.241020 13573 net.cpp:157] Top shape: 1 3 (3)
I0607 20:56:35.241024 13573 net.cpp:157] Top shape: 1 3 (3)
I0607 20:56:35.241027 13573 net.cpp:157] Top shape: 1 3 (3)
I0607 20:56:35.241030 13573 net.cpp:165] Memory required for data: 28800076
I0607 20:56:35.241034 13573 layer_factory.hpp:77] Creating layer gt_boxes_input-data_2_split
I0607 20:56:35.241039 13573 net.cpp:106] Creating Layer gt_boxes_input-data_2_split
I0607 20:56:35.241041 13573 net.cpp:454] gt_boxes_input-data_2_split <- gt_boxes
I0607 20:56:35.241049 13573 net.cpp:411] gt_boxes_input-data_2_split -> gt_boxes_input-data_2_split_0
I0607 20:56:35.241053 13573 net.cpp:411] gt_boxes_input-data_2_split -> gt_boxes_input-data_2_split_1
I0607 20:56:35.241058 13573 net.cpp:411] gt_boxes_input-data_2_split -> gt_boxes_input-data_2_split_2
I0607 20:56:35.241096 13573 net.cpp:150] Setting up gt_boxes_input-data_2_split
I0607 20:56:35.241109 13573 net.cpp:157] Top shape: 1 4 (4)
I0607 20:56:35.241114 13573 net.cpp:157] Top shape: 1 4 (4)
I0607 20:56:35.241118 13573 net.cpp:157] Top shape: 1 4 (4)
I0607 20:56:35.241122 13573 net.cpp:165] Memory required for data: 28800124
I0607 20:56:35.241124 13573 layer_factory.hpp:77] Creating layer conv1_1
I0607 20:56:35.241137 13573 net.cpp:106] Creating Layer conv1_1
I0607 20:56:35.241150 13573 net.cpp:454] conv1_1 <- data_input-data_0_split_0
I0607 20:56:35.241158 13573 net.cpp:411] conv1_1 -> conv1_1
I0607 20:56:35.534591 13573 net.cpp:150] Setting up conv1_1
I0607 20:56:35.534649 13573 net.cpp:157] Top shape: 1 64 600 1000 (38400000)
I0607 20:56:35.534656 13573 net.cpp:165] Memory required for data: 182400124
I0607 20:56:35.534684 13573 layer_factory.hpp:77] Creating layer relu1_1
I0607 20:56:35.534703 13573 net.cpp:106] Creating Layer relu1_1
I0607 20:56:35.534708 13573 net.cpp:454] relu1_1 <- conv1_1
I0607 20:56:35.534718 13573 net.cpp:397] relu1_1 -> conv1_1 (in-place)
I0607 20:56:35.535639 13573 net.cpp:150] Setting up relu1_1
I0607 20:56:35.535661 13573 net.cpp:157] Top shape: 1 64 600 1000 (38400000)
I0607 20:56:35.535666 13573 net.cpp:165] Memory required for data: 336000124
I0607 20:56:35.535671 13573 layer_factory.hpp:77] Creating layer conv1_2
I0607 20:56:35.535686 13573 net.cpp:106] Creating Layer conv1_2
I0607 20:56:35.535689 13573 net.cpp:454] conv1_2 <- conv1_1
I0607 20:56:35.535696 13573 net.cpp:411] conv1_2 -> conv1_2
I0607 20:56:35.540830 13573 net.cpp:150] Setting up conv1_2
I0607 20:56:35.540856 13573 net.cpp:157] Top shape: 1 64 600 1000 (38400000)
I0607 20:56:35.540861 13573 net.cpp:165] Memory required for data: 489600124
I0607 20:56:35.540874 13573 layer_factory.hpp:77] Creating layer relu1_2
I0607 20:56:35.540881 13573 net.cpp:106] Creating Layer relu1_2
I0607 20:56:35.540885 13573 net.cpp:454] relu1_2 <- conv1_2
I0607 20:56:35.540891 13573 net.cpp:397] relu1_2 -> conv1_2 (in-place)
I0607 20:56:35.541067 13573 net.cpp:150] Setting up relu1_2
I0607 20:56:35.541085 13573 net.cpp:157] Top shape: 1 64 600 1000 (38400000)
I0607 20:56:35.541090 13573 net.cpp:165] Memory required for data: 643200124
I0607 20:56:35.541093 13573 layer_factory.hpp:77] Creating layer pool1
I0607 20:56:35.541108 13573 net.cpp:106] Creating Layer pool1
I0607 20:56:35.541112 13573 net.cpp:454] pool1 <- conv1_2
I0607 20:56:35.541119 13573 net.cpp:411] pool1 -> pool1
I0607 20:56:35.541173 13573 net.cpp:150] Setting up pool1
I0607 20:56:35.541179 13573 net.cpp:157] Top shape: 1 64 300 500 (9600000)
I0607 20:56:35.541182 13573 net.cpp:165] Memory required for data: 681600124
I0607 20:56:35.541187 13573 layer_factory.hpp:77] Creating layer conv2_1
I0607 20:56:35.541195 13573 net.cpp:106] Creating Layer conv2_1
I0607 20:56:35.541198 13573 net.cpp:454] conv2_1 <- pool1
I0607 20:56:35.541204 13573 net.cpp:411] conv2_1 -> conv2_1
I0607 20:56:35.544801 13573 net.cpp:150] Setting up conv2_1
I0607 20:56:35.544827 13573 net.cpp:157] Top shape: 1 128 300 500 (19200000)
I0607 20:56:35.544832 13573 net.cpp:165] Memory required for data: 758400124
I0607 20:56:35.544842 13573 layer_factory.hpp:77] Creating layer relu2_1
I0607 20:56:35.544850 13573 net.cpp:106] Creating Layer relu2_1
I0607 20:56:35.544854 13573 net.cpp:454] relu2_1 <- conv2_1
I0607 20:56:35.544859 13573 net.cpp:397] relu2_1 -> conv2_1 (in-place)
I0607 20:56:35.545044 13573 net.cpp:150] Setting up relu2_1
I0607 20:56:35.545063 13573 net.cpp:157] Top shape: 1 128 300 500 (19200000)
I0607 20:56:35.545068 13573 net.cpp:165] Memory required for data: 835200124
I0607 20:56:35.545073 13573 layer_factory.hpp:77] Creating layer conv2_2
I0607 20:56:35.545083 13573 net.cpp:106] Creating Layer conv2_2
I0607 20:56:35.545085 13573 net.cpp:454] conv2_2 <- conv2_1
I0607 20:56:35.545092 13573 net.cpp:411] conv2_2 -> conv2_2
I0607 20:56:35.549396 13573 net.cpp:150] Setting up conv2_2
I0607 20:56:35.549420 13573 net.cpp:157] Top shape: 1 128 300 500 (19200000)
I0607 20:56:35.549425 13573 net.cpp:165] Memory required for data: 912000124
I0607 20:56:35.549433 13573 layer_factory.hpp:77] Creating layer relu2_2
I0607 20:56:35.549441 13573 net.cpp:106] Creating Layer relu2_2
I0607 20:56:35.549445 13573 net.cpp:454] relu2_2 <- conv2_2
I0607 20:56:35.549451 13573 net.cpp:397] relu2_2 -> conv2_2 (in-place)
I0607 20:56:35.550356 13573 net.cpp:150] Setting up relu2_2
I0607 20:56:35.550377 13573 net.cpp:157] Top shape: 1 128 300 500 (19200000)
I0607 20:56:35.550382 13573 net.cpp:165] Memory required for data: 988800124
I0607 20:56:35.550386 13573 layer_factory.hpp:77] Creating layer pool2
I0607 20:56:35.550395 13573 net.cpp:106] Creating Layer pool2
I0607 20:56:35.550398 13573 net.cpp:454] pool2 <- conv2_2
I0607 20:56:35.550405 13573 net.cpp:411] pool2 -> pool2
I0607 20:56:35.550449 13573 net.cpp:150] Setting up pool2
I0607 20:56:35.550456 13573 net.cpp:157] Top shape: 1 128 150 250 (4800000)
I0607 20:56:35.550458 13573 net.cpp:165] Memory required for data: 1008000124
I0607 20:56:35.550462 13573 layer_factory.hpp:77] Creating layer conv3_1
I0607 20:56:35.550470 13573 net.cpp:106] Creating Layer conv3_1
I0607 20:56:35.550474 13573 net.cpp:454] conv3_1 <- pool2
I0607 20:56:35.550480 13573 net.cpp:411] conv3_1 -> conv3_1
I0607 20:56:35.554199 13573 net.cpp:150] Setting up conv3_1
I0607 20:56:35.554224 13573 net.cpp:157] Top shape: 1 256 150 250 (9600000)
I0607 20:56:35.554229 13573 net.cpp:165] Memory required for data: 1046400124
I0607 20:56:35.554240 13573 layer_factory.hpp:77] Creating layer relu3_1
I0607 20:56:35.554247 13573 net.cpp:106] Creating Layer relu3_1
I0607 20:56:35.554251 13573 net.cpp:454] relu3_1 <- conv3_1
I0607 20:56:35.554257 13573 net.cpp:397] relu3_1 -> conv3_1 (in-place)
I0607 20:56:35.554445 13573 net.cpp:150] Setting up relu3_1
I0607 20:56:35.554462 13573 net.cpp:157] Top shape: 1 256 150 250 (9600000)
I0607 20:56:35.554467 13573 net.cpp:165] Memory required for data: 1084800124
I0607 20:56:35.554471 13573 layer_factory.hpp:77] Creating layer conv3_2
I0607 20:56:35.554482 13573 net.cpp:106] Creating Layer conv3_2
I0607 20:56:35.554486 13573 net.cpp:454] conv3_2 <- conv3_1
I0607 20:56:35.554493 13573 net.cpp:411] conv3_2 -> conv3_2
I0607 20:56:35.558957 13573 net.cpp:150] Setting up conv3_2
I0607 20:56:35.558981 13573 net.cpp:157] Top shape: 1 256 150 250 (9600000)
I0607 20:56:35.558986 13573 net.cpp:165] Memory required for data: 1123200124
I0607 20:56:35.558995 13573 layer_factory.hpp:77] Creating layer relu3_2
I0607 20:56:35.559001 13573 net.cpp:106] Creating Layer relu3_2
I0607 20:56:35.559005 13573 net.cpp:454] relu3_2 <- conv3_2
I0607 20:56:35.559011 13573 net.cpp:397] relu3_2 -> conv3_2 (in-place)
I0607 20:56:35.559188 13573 net.cpp:150] Setting up relu3_2
I0607 20:56:35.559206 13573 net.cpp:157] Top shape: 1 256 150 250 (9600000)
I0607 20:56:35.559211 13573 net.cpp:165] Memory required for data: 1161600124
I0607 20:56:35.559214 13573 layer_factory.hpp:77] Creating layer conv3_3
I0607 20:56:35.559223 13573 net.cpp:106] Creating Layer conv3_3
I0607 20:56:35.559227 13573 net.cpp:454] conv3_3 <- conv3_2
I0607 20:56:35.559232 13573 net.cpp:411] conv3_3 -> conv3_3
I0607 20:56:35.563588 13573 net.cpp:150] Setting up conv3_3
I0607 20:56:35.563613 13573 net.cpp:157] Top shape: 1 256 150 250 (9600000)
I0607 20:56:35.563618 13573 net.cpp:165] Memory required for data: 1200000124
I0607 20:56:35.563627 13573 layer_factory.hpp:77] Creating layer relu3_3
I0607 20:56:35.563633 13573 net.cpp:106] Creating Layer relu3_3
I0607 20:56:35.563638 13573 net.cpp:454] relu3_3 <- conv3_3
I0607 20:56:35.563644 13573 net.cpp:397] relu3_3 -> conv3_3 (in-place)
I0607 20:56:35.564525 13573 net.cpp:150] Setting up relu3_3
I0607 20:56:35.564545 13573 net.cpp:157] Top shape: 1 256 150 250 (9600000)
I0607 20:56:35.564550 13573 net.cpp:165] Memory required for data: 1238400124
I0607 20:56:35.564554 13573 layer_factory.hpp:77] Creating layer pool3
I0607 20:56:35.564563 13573 net.cpp:106] Creating Layer pool3
I0607 20:56:35.564566 13573 net.cpp:454] pool3 <- conv3_3
I0607 20:56:35.564573 13573 net.cpp:411] pool3 -> pool3
I0607 20:56:35.564620 13573 net.cpp:150] Setting up pool3
I0607 20:56:35.564625 13573 net.cpp:157] Top shape: 1 256 75 125 (2400000)
I0607 20:56:35.564630 13573 net.cpp:165] Memory required for data: 1248000124
I0607 20:56:35.564632 13573 layer_factory.hpp:77] Creating layer conv4_1
I0607 20:56:35.564646 13573 net.cpp:106] Creating Layer conv4_1
I0607 20:56:35.564651 13573 net.cpp:454] conv4_1 <- pool3
I0607 20:56:35.564657 13573 net.cpp:411] conv4_1 -> conv4_1
I0607 20:56:35.572183 13573 net.cpp:150] Setting up conv4_1
I0607 20:56:35.572209 13573 net.cpp:157] Top shape: 1 512 75 125 (4800000)
I0607 20:56:35.572214 13573 net.cpp:165] Memory required for data: 1267200124
I0607 20:56:35.572221 13573 layer_factory.hpp:77] Creating layer relu4_1
I0607 20:56:35.572232 13573 net.cpp:106] Creating Layer relu4_1
I0607 20:56:35.572235 13573 net.cpp:454] relu4_1 <- conv4_1
I0607 20:56:35.572240 13573 net.cpp:397] relu4_1 -> conv4_1 (in-place)
I0607 20:56:35.573164 13573 net.cpp:150] Setting up relu4_1
I0607 20:56:35.573187 13573 net.cpp:157] Top shape: 1 512 75 125 (4800000)
I0607 20:56:35.573191 13573 net.cpp:165] Memory required for data: 1286400124
I0607 20:56:35.573196 13573 layer_factory.hpp:77] Creating layer conv4_2
I0607 20:56:35.573205 13573 net.cpp:106] Creating Layer conv4_2
I0607 20:56:35.573210 13573 net.cpp:454] conv4_2 <- conv4_1
I0607 20:56:35.573217 13573 net.cpp:411] conv4_2 -> conv4_2
I0607 20:56:35.582156 13573 net.cpp:150] Setting up conv4_2
I0607 20:56:35.582181 13573 net.cpp:157] Top shape: 1 512 75 125 (4800000)
I0607 20:56:35.582186 13573 net.cpp:165] Memory required for data: 1305600124
I0607 20:56:35.582198 13573 layer_factory.hpp:77] Creating layer relu4_2
I0607 20:56:35.582211 13573 net.cpp:106] Creating Layer relu4_2
I0607 20:56:35.582214 13573 net.cpp:454] relu4_2 <- conv4_2
I0607 20:56:35.582219 13573 net.cpp:397] relu4_2 -> conv4_2 (in-place)
I0607 20:56:35.582418 13573 net.cpp:150] Setting up relu4_2
I0607 20:56:35.582428 13573 net.cpp:157] Top shape: 1 512 75 125 (4800000)
I0607 20:56:35.582432 13573 net.cpp:165] Memory required for data: 1324800124
I0607 20:56:35.582435 13573 layer_factory.hpp:77] Creating layer conv4_3
I0607 20:56:35.582445 13573 net.cpp:106] Creating Layer conv4_3
I0607 20:56:35.582450 13573 net.cpp:454] conv4_3 <- conv4_2
I0607 20:56:35.582458 13573 net.cpp:411] conv4_3 -> conv4_3
I0607 20:56:35.590520 13573 net.cpp:150] Setting up conv4_3
I0607 20:56:35.590546 13573 net.cpp:157] Top shape: 1 512 75 125 (4800000)
I0607 20:56:35.590551 13573 net.cpp:165] Memory required for data: 1344000124
I0607 20:56:35.590559 13573 layer_factory.hpp:77] Creating layer relu4_3
I0607 20:56:35.590565 13573 net.cpp:106] Creating Layer relu4_3
I0607 20:56:35.590569 13573 net.cpp:454] relu4_3 <- conv4_3
I0607 20:56:35.590574 13573 net.cpp:397] relu4_3 -> conv4_3 (in-place)
I0607 20:56:35.591490 13573 net.cpp:150] Setting up relu4_3
I0607 20:56:35.591512 13573 net.cpp:157] Top shape: 1 512 75 125 (4800000)
I0607 20:56:35.591517 13573 net.cpp:165] Memory required for data: 1363200124
I0607 20:56:35.591521 13573 layer_factory.hpp:77] Creating layer conv4_3_relu4_3_0_split
I0607 20:56:35.591531 13573 net.cpp:106] Creating Layer conv4_3_relu4_3_0_split
I0607 20:56:35.591534 13573 net.cpp:454] conv4_3_relu4_3_0_split <- conv4_3
I0607 20:56:35.591547 13573 net.cpp:411] conv4_3_relu4_3_0_split -> conv4_3_relu4_3_0_split_0
I0607 20:56:35.591554 13573 net.cpp:411] conv4_3_relu4_3_0_split -> conv4_3_relu4_3_0_split_1
I0607 20:56:35.591601 13573 net.cpp:150] Setting up conv4_3_relu4_3_0_split
I0607 20:56:35.591608 13573 net.cpp:157] Top shape: 1 512 75 125 (4800000)
I0607 20:56:35.591611 13573 net.cpp:157] Top shape: 1 512 75 125 (4800000)
I0607 20:56:35.591614 13573 net.cpp:165] Memory required for data: 1401600124
I0607 20:56:35.591617 13573 layer_factory.hpp:77] Creating layer pool4
I0607 20:56:35.591626 13573 net.cpp:106] Creating Layer pool4
I0607 20:56:35.591629 13573 net.cpp:454] pool4 <- conv4_3_relu4_3_0_split_0
I0607 20:56:35.591634 13573 net.cpp:411] pool4 -> pool4
I0607 20:56:35.591673 13573 net.cpp:150] Setting up pool4
I0607 20:56:35.591680 13573 net.cpp:157] Top shape: 1 512 38 63 (1225728)
I0607 20:56:35.591682 13573 net.cpp:165] Memory required for data: 1406503036
I0607 20:56:35.591686 13573 layer_factory.hpp:77] Creating layer conv5_1
I0607 20:56:35.591694 13573 net.cpp:106] Creating Layer conv5_1
I0607 20:56:35.591698 13573 net.cpp:454] conv5_1 <- pool4
I0607 20:56:35.591706 13573 net.cpp:411] conv5_1 -> conv5_1
I0607 20:56:35.599761 13573 net.cpp:150] Setting up conv5_1
I0607 20:56:35.599787 13573 net.cpp:157] Top shape: 1 512 38 63 (1225728)
I0607 20:56:35.599792 13573 net.cpp:165] Memory required for data: 1411405948
I0607 20:56:35.599799 13573 layer_factory.hpp:77] Creating layer relu5_1
I0607 20:56:35.599808 13573 net.cpp:106] Creating Layer relu5_1
I0607 20:56:35.599813 13573 net.cpp:454] relu5_1 <- conv5_1
I0607 20:56:35.599818 13573 net.cpp:397] relu5_1 -> conv5_1 (in-place)
I0607 20:56:35.600016 13573 net.cpp:150] Setting up relu5_1
I0607 20:56:35.600035 13573 net.cpp:157] Top shape: 1 512 38 63 (1225728)
I0607 20:56:35.600039 13573 net.cpp:165] Memory required for data: 1416308860
I0607 20:56:35.600044 13573 layer_factory.hpp:77] Creating layer conv5_2
I0607 20:56:35.600051 13573 net.cpp:106] Creating Layer conv5_2
I0607 20:56:35.600055 13573 net.cpp:454] conv5_2 <- conv5_1
I0607 20:56:35.600062 13573 net.cpp:411] conv5_2 -> conv5_2
I0607 20:56:35.608178 13573 net.cpp:150] Setting up conv5_2
I0607 20:56:35.608204 13573 net.cpp:157] Top shape: 1 512 38 63 (1225728)
I0607 20:56:35.608209 13573 net.cpp:165] Memory required for data: 1421211772
I0607 20:56:35.608217 13573 layer_factory.hpp:77] Creating layer relu5_2
I0607 20:56:35.608232 13573 net.cpp:106] Creating Layer relu5_2
I0607 20:56:35.608237 13573 net.cpp:454] relu5_2 <- conv5_2
I0607 20:56:35.608245 13573 net.cpp:397] relu5_2 -> conv5_2 (in-place)
I0607 20:56:35.608428 13573 net.cpp:150] Setting up relu5_2
I0607 20:56:35.608438 13573 net.cpp:157] Top shape: 1 512 38 63 (1225728)
I0607 20:56:35.608440 13573 net.cpp:165] Memory required for data: 1426114684
I0607 20:56:35.608444 13573 layer_factory.hpp:77] Creating layer conv5_3
I0607 20:56:35.608454 13573 net.cpp:106] Creating Layer conv5_3
I0607 20:56:35.608458 13573 net.cpp:454] conv5_3 <- conv5_2
I0607 20:56:35.608465 13573 net.cpp:411] conv5_3 -> conv5_3
I0607 20:56:35.616578 13573 net.cpp:150] Setting up conv5_3
I0607 20:56:35.616605 13573 net.cpp:157] Top shape: 1 512 38 63 (1225728)
I0607 20:56:35.616611 13573 net.cpp:165] Memory required for data: 1431017596
I0607 20:56:35.616618 13573 layer_factory.hpp:77] Creating layer relu5_3
I0607 20:56:35.616628 13573 net.cpp:106] Creating Layer relu5_3
I0607 20:56:35.616633 13573 net.cpp:454] relu5_3 <- conv5_3
I0607 20:56:35.616639 13573 net.cpp:397] relu5_3 -> conv5_3 (in-place)
I0607 20:56:35.617550 13573 net.cpp:150] Setting up relu5_3
I0607 20:56:35.617570 13573 net.cpp:157] Top shape: 1 512 38 63 (1225728)
I0607 20:56:35.617575 13573 net.cpp:165] Memory required for data: 1435920508
I0607 20:56:35.617579 13573 layer_factory.hpp:77] Creating layer conv5_3_relu5_3_0_split
I0607 20:56:35.617586 13573 net.cpp:106] Creating Layer conv5_3_relu5_3_0_split
I0607 20:56:35.617590 13573 net.cpp:454] conv5_3_relu5_3_0_split <- conv5_3
I0607 20:56:35.617595 13573 net.cpp:411] conv5_3_relu5_3_0_split -> conv5_3_relu5_3_0_split_0
I0607 20:56:35.617609 13573 net.cpp:411] conv5_3_relu5_3_0_split -> conv5_3_relu5_3_0_split_1
I0607 20:56:35.617658 13573 net.cpp:150] Setting up conv5_3_relu5_3_0_split
I0607 20:56:35.617666 13573 net.cpp:157] Top shape: 1 512 38 63 (1225728)
I0607 20:56:35.617669 13573 net.cpp:157] Top shape: 1 512 38 63 (1225728)
I0607 20:56:35.617672 13573 net.cpp:165] Memory required for data: 1445726332
I0607 20:56:35.617676 13573 layer_factory.hpp:77] Creating layer p1_conv
I0607 20:56:35.617687 13573 net.cpp:106] Creating Layer p1_conv
I0607 20:56:35.617691 13573 net.cpp:454] p1_conv <- conv5_3_relu5_3_0_split_0
I0607 20:56:35.617697 13573 net.cpp:411] p1_conv -> p1_conv
I0607 20:56:35.623770 13573 net.cpp:150] Setting up p1_conv
I0607 20:56:35.623795 13573 net.cpp:157] Top shape: 1 256 38 63 (612864)
I0607 20:56:35.623800 13573 net.cpp:165] Memory required for data: 1448177788
I0607 20:56:35.623807 13573 layer_factory.hpp:77] Creating layer p1_upsample
I0607 20:56:35.623833 13573 net.cpp:106] Creating Layer p1_upsample
I0607 20:56:35.623838 13573 net.cpp:454] p1_upsample <- p1_conv
I0607 20:56:35.623843 13573 net.cpp:411] p1_upsample -> p1_upsample
I0607 20:56:35.624068 13573 net.cpp:150] Setting up p1_upsample
I0607 20:56:35.624089 13573 net.cpp:157] Top shape: 1 256 75 125 (2400000)
I0607 20:56:35.624094 13573 net.cpp:165] Memory required for data: 1457777788
I0607 20:56:35.624099 13573 layer_factory.hpp:77] Creating layer p1_upsample_p1_upsample_0_split
I0607 20:56:35.624104 13573 net.cpp:106] Creating Layer p1_upsample_p1_upsample_0_split
I0607 20:56:35.624109 13573 net.cpp:454] p1_upsample_p1_upsample_0_split <- p1_upsample
I0607 20:56:35.624112 13573 net.cpp:411] p1_upsample_p1_upsample_0_split -> p1_upsample_p1_upsample_0_split_0
I0607 20:56:35.624120 13573 net.cpp:411] p1_upsample_p1_upsample_0_split -> p1_upsample_p1_upsample_0_split_1
I0607 20:56:35.624158 13573 net.cpp:150] Setting up p1_upsample_p1_upsample_0_split
I0607 20:56:35.624164 13573 net.cpp:157] Top shape: 1 256 75 125 (2400000)
I0607 20:56:35.624168 13573 net.cpp:157] Top shape: 1 256 75 125 (2400000)
I0607 20:56:35.624171 13573 net.cpp:165] Memory required for data: 1476977788
I0607 20:56:35.624174 13573 layer_factory.hpp:77] Creating layer p2_conv
I0607 20:56:35.624183 13573 net.cpp:106] Creating Layer p2_conv
I0607 20:56:35.624187 13573 net.cpp:454] p2_conv <- conv4_3_relu4_3_0_split_1
I0607 20:56:35.624194 13573 net.cpp:411] p2_conv -> p2_conv
I0607 20:56:35.629429 13573 net.cpp:150] Setting up p2_conv
I0607 20:56:35.629454 13573 net.cpp:157] Top shape: 1 256 75 125 (2400000)
I0607 20:56:35.629459 13573 net.cpp:165] Memory required for data: 1486577788
I0607 20:56:35.629470 13573 layer_factory.hpp:77] Creating layer conadd
I0607 20:56:35.629484 13573 net.cpp:106] Creating Layer conadd
I0607 20:56:35.629488 13573 net.cpp:454] conadd <- p1_upsample_p1_upsample_0_split_0
I0607 20:56:35.629493 13573 net.cpp:454] conadd <- p2_conv
I0607 20:56:35.629499 13573 net.cpp:411] conadd -> conadd
I0607 20:56:35.629540 13573 net.cpp:150] Setting up conadd
I0607 20:56:35.629546 13573 net.cpp:157] Top shape: 1 512 75 125 (4800000)
I0607 20:56:35.629549 13573 net.cpp:165] Memory required for data: 1505777788
I0607 20:56:35.629552 13573 layer_factory.hpp:77] Creating layer rpn_conv/3x3
I0607 20:56:35.629564 13573 net.cpp:106] Creating Layer rpn_conv/3x3
I0607 20:56:35.629567 13573 net.cpp:454] rpn_conv/3x3 <- p1_upsample_p1_upsample_0_split_1
I0607 20:56:35.629576 13573 net.cpp:411] rpn_conv/3x3 -> rpn/output
I0607 20:56:35.663460 13573 net.cpp:150] Setting up rpn_conv/3x3
I0607 20:56:35.663486 13573 net.cpp:157] Top shape: 1 512 75 125 (4800000)
I0607 20:56:35.663491 13573 net.cpp:165] Memory required for data: 1524977788
I0607 20:56:35.663507 13573 layer_factory.hpp:77] Creating layer rpn_relu/3x3
I0607 20:56:35.663516 13573 net.cpp:106] Creating Layer rpn_relu/3x3
I0607 20:56:35.663544 13573 net.cpp:454] rpn_relu/3x3 <- rpn/output
I0607 20:56:35.663555 13573 net.cpp:397] rpn_relu/3x3 -> rpn/output (in-place)
I0607 20:56:35.664479 13573 net.cpp:150] Setting up rpn_relu/3x3
I0607 20:56:35.664499 13573 net.cpp:157] Top shape: 1 512 75 125 (4800000)
I0607 20:56:35.664504 13573 net.cpp:165] Memory required for data: 1544177788
I0607 20:56:35.664508 13573 layer_factory.hpp:77] Creating layer rpn/output_rpn_relu/3x3_0_split
I0607 20:56:35.664515 13573 net.cpp:106] Creating Layer rpn/output_rpn_relu/3x3_0_split
I0607 20:56:35.664518 13573 net.cpp:454] rpn/output_rpn_relu/3x3_0_split <- rpn/output
I0607 20:56:35.664523 13573 net.cpp:411] rpn/output_rpn_relu/3x3_0_split -> rpn/output_rpn_relu/3x3_0_split_0
I0607 20:56:35.664530 13573 net.cpp:411] rpn/output_rpn_relu/3x3_0_split -> rpn/output_rpn_relu/3x3_0_split_1
I0607 20:56:35.664580 13573 net.cpp:150] Setting up rpn/output_rpn_relu/3x3_0_split
I0607 20:56:35.664592 13573 net.cpp:157] Top shape: 1 512 75 125 (4800000)
I0607 20:56:35.664597 13573 net.cpp:157] Top shape: 1 512 75 125 (4800000)
I0607 20:56:35.664600 13573 net.cpp:165] Memory required for data: 1582577788
I0607 20:56:35.664604 13573 layer_factory.hpp:77] Creating layer rpn_cls_score
I0607 20:56:35.664618 13573 net.cpp:106] Creating Layer rpn_cls_score
I0607 20:56:35.664634 13573 net.cpp:454] rpn_cls_score <- rpn/output_rpn_relu/3x3_0_split_0
I0607 20:56:35.664641 13573 net.cpp:411] rpn_cls_score -> rpn_cls_score
I0607 20:56:35.667183 13573 net.cpp:150] Setting up rpn_cls_score
I0607 20:56:35.667207 13573 net.cpp:157] Top shape: 1 18 75 125 (168750)
I0607 20:56:35.667212 13573 net.cpp:165] Memory required for data: 1583252788
I0607 20:56:35.667218 13573 layer_factory.hpp:77] Creating layer rpn_cls_score_rpn_cls_score_0_split
I0607 20:56:35.667228 13573 net.cpp:106] Creating Layer rpn_cls_score_rpn_cls_score_0_split
I0607 20:56:35.667235 13573 net.cpp:454] rpn_cls_score_rpn_cls_score_0_split <- rpn_cls_score
I0607 20:56:35.667242 13573 net.cpp:411] rpn_cls_score_rpn_cls_score_0_split -> rpn_cls_score_rpn_cls_score_0_split_0
I0607 20:56:35.667248 13573 net.cpp:411] rpn_cls_score_rpn_cls_score_0_split -> rpn_cls_score_rpn_cls_score_0_split_1
I0607 20:56:35.667313 13573 net.cpp:150] Setting up rpn_cls_score_rpn_cls_score_0_split
I0607 20:56:35.667326 13573 net.cpp:157] Top shape: 1 18 75 125 (168750)
I0607 20:56:35.667331 13573 net.cpp:157] Top shape: 1 18 75 125 (168750)
I0607 20:56:35.667335 13573 net.cpp:165] Memory required for data: 1584602788
I0607 20:56:35.667337 13573 layer_factory.hpp:77] Creating layer rpn_bbox_pred
I0607 20:56:35.667349 13573 net.cpp:106] Creating Layer rpn_bbox_pred
I0607 20:56:35.667358 13573 net.cpp:454] rpn_bbox_pred <- rpn/output_rpn_relu/3x3_0_split_1
I0607 20:56:35.667367 13573 net.cpp:411] rpn_bbox_pred -> rpn_bbox_pred
I0607 20:56:35.669369 13573 net.cpp:150] Setting up rpn_bbox_pred
I0607 20:56:35.669392 13573 net.cpp:157] Top shape: 1 36 75 125 (337500)
I0607 20:56:35.669396 13573 net.cpp:165] Memory required for data: 1585952788
I0607 20:56:35.669404 13573 layer_factory.hpp:77] Creating layer rpn_bbox_pred_rpn_bbox_pred_0_split
I0607 20:56:35.669414 13573 net.cpp:106] Creating Layer rpn_bbox_pred_rpn_bbox_pred_0_split
I0607 20:56:35.669417 13573 net.cpp:454] rpn_bbox_pred_rpn_bbox_pred_0_split <- rpn_bbox_pred
I0607 20:56:35.669423 13573 net.cpp:411] rpn_bbox_pred_rpn_bbox_pred_0_split -> rpn_bbox_pred_rpn_bbox_pred_0_split_0
I0607 20:56:35.669430 13573 net.cpp:411] rpn_bbox_pred_rpn_bbox_pred_0_split -> rpn_bbox_pred_rpn_bbox_pred_0_split_1
I0607 20:56:35.669478 13573 net.cpp:150] Setting up rpn_bbox_pred_rpn_bbox_pred_0_split
I0607 20:56:35.669492 13573 net.cpp:157] Top shape: 1 36 75 125 (337500)
I0607 20:56:35.669497 13573 net.cpp:157] Top shape: 1 36 75 125 (337500)
I0607 20:56:35.669499 13573 net.cpp:165] Memory required for data: 1588652788
I0607 20:56:35.669503 13573 layer_factory.hpp:77] Creating layer rpn_cls_score_reshape
I0607 20:56:35.669524 13573 net.cpp:106] Creating Layer rpn_cls_score_reshape
I0607 20:56:35.669540 13573 net.cpp:454] rpn_cls_score_reshape <- rpn_cls_score_rpn_cls_score_0_split_0
I0607 20:56:35.669550 13573 net.cpp:411] rpn_cls_score_reshape -> rpn_cls_score_reshape
I0607 20:56:35.669590 13573 net.cpp:150] Setting up rpn_cls_score_reshape
I0607 20:56:35.669602 13573 net.cpp:157] Top shape: 1 2 675 125 (168750)
I0607 20:56:35.669606 13573 net.cpp:165] Memory required for data: 1589327788
I0607 20:56:35.669610 13573 layer_factory.hpp:77] Creating layer rpn_cls_score_reshape_rpn_cls_score_reshape_0_split
I0607 20:56:35.669618 13573 net.cpp:106] Creating Layer rpn_cls_score_reshape_rpn_cls_score_reshape_0_split
I0607 20:56:35.669621 13573 net.cpp:454] rpn_cls_score_reshape_rpn_cls_score_reshape_0_split <- rpn_cls_score_reshape
I0607 20:56:35.669626 13573 net.cpp:411] rpn_cls_score_reshape_rpn_cls_score_reshape_0_split -> rpn_cls_score_reshape_rpn_cls_score_reshape_0_split_0
I0607 20:56:35.669632 13573 net.cpp:411] rpn_cls_score_reshape_rpn_cls_score_reshape_0_split -> rpn_cls_score_reshape_rpn_cls_score_reshape_0_split_1
I0607 20:56:35.669674 13573 net.cpp:150] Setting up rpn_cls_score_reshape_rpn_cls_score_reshape_0_split
I0607 20:56:35.669685 13573 net.cpp:157] Top shape: 1 2 675 125 (168750)
I0607 20:56:35.669690 13573 net.cpp:157] Top shape: 1 2 675 125 (168750)
I0607 20:56:35.669693 13573 net.cpp:165] Memory required for data: 1590677788
I0607 20:56:35.669697 13573 layer_factory.hpp:77] Creating layer rpn-data
I0607 20:56:35.670825 13573 net.cpp:106] Creating Layer rpn-data
I0607 20:56:35.670846 13573 net.cpp:454] rpn-data <- rpn_cls_score_rpn_cls_score_0_split_1
I0607 20:56:35.670855 13573 net.cpp:454] rpn-data <- gt_boxes_input-data_2_split_0
I0607 20:56:35.670859 13573 net.cpp:454] rpn-data <- im_info_input-data_1_split_0
I0607 20:56:35.670863 13573 net.cpp:454] rpn-data <- data_input-data_0_split_1
I0607 20:56:35.670869 13573 net.cpp:411] rpn-data -> rpn_labels
I0607 20:56:35.670876 13573 net.cpp:411] rpn-data -> rpn_bbox_targets
I0607 20:56:35.670893 13573 net.cpp:411] rpn-data -> rpn_bbox_inside_weights
I0607 20:56:35.670900 13573 net.cpp:411] rpn-data -> rpn_bbox_outside_weights
I0607 20:56:35.672507 13573 net.cpp:150] Setting up rpn-data
I0607 20:56:35.672531 13573 net.cpp:157] Top shape: 1 1 675 125 (84375)
I0607 20:56:35.672538 13573 net.cpp:157] Top shape: 1 36 75 125 (337500)
I0607 20:56:35.672541 13573 net.cpp:157] Top shape: 1 36 75 125 (337500)
I0607 20:56:35.672545 13573 net.cpp:157] Top shape: 1 36 75 125 (337500)
I0607 20:56:35.672549 13573 net.cpp:165] Memory required for data: 1595065288
I0607 20:56:35.672552 13573 layer_factory.hpp:77] Creating layer rpn_loss_cls
I0607 20:56:35.672565 13573 net.cpp:106] Creating Layer rpn_loss_cls
I0607 20:56:35.672580 13573 net.cpp:454] rpn_loss_cls <- rpn_cls_score_reshape_rpn_cls_score_reshape_0_split_0
I0607 20:56:35.672585 13573 net.cpp:454] rpn_loss_cls <- rpn_labels
…
I0607 20:56:35.677103 13573 net.cpp:157] Top shape: (1)
I0607 20:56:35.677109 13573 net.cpp:160]     with loss weight 1
I0607 20:56:35.677114 13573 net.cpp:165] Memory required for data: 1595065296
I0607 20:56:35.677119 13573 layer_factory.hpp:77] Creating layer rpn_cls_prob
I0607 20:56:35.677125 13573 net.cpp:106] Creating Layer rpn_cls_prob
I0607 20:56:35.677130 13573 net.cpp:454] rpn_cls_prob <- rpn_cls_score_reshape_rpn_cls_score_reshape_0_split_1
I0607 20:56:35.677137 13573 net.cpp:411] rpn_cls_prob -> rpn_cls_prob
I0607 20:56:35.677417 13573 net.cpp:150] Setting up rpn_cls_prob
I0607 20:56:35.677434 13573 net.cpp:157] Top shape: 1 2 675 125 (168750)
I0607 20:56:35.677438 13573 net.cpp:165] Memory required for data: 1595740296
I0607 20:56:35.677443 13573 layer_factory.hpp:77] Creating layer rpn_cls_prob_reshape
I0607 20:56:35.677449 13573 net.cpp:106] Creating Layer rpn_cls_prob_reshape
I0607 20:56:35.677453 13573 net.cpp:454] rpn_cls_prob_reshape <- rpn_cls_prob
I0607 20:56:35.677460 13573 net.cpp:411] rpn_cls_prob_reshape -> rpn_cls_prob_reshape
I0607 20:56:35.677491 13573 net.cpp:150] Setting up rpn_cls_prob_reshape
I0607 20:56:35.677506 13573 net.cpp:157] Top shape: 1 18 75 125 (168750)
I0607 20:56:35.677510 13573 net.cpp:165] Memory required for data: 1596415296
I0607 20:56:35.677515 13573 layer_factory.hpp:77] Creating layer proposal
I0607 20:56:35.678661 13573 net.cpp:106] Creating Layer proposal
I0607 20:56:35.678684 13573 net.cpp:454] proposal <- rpn_cls_prob_reshape
I0607 20:56:35.678691 13573 net.cpp:454] proposal <- rpn_bbox_pred_rpn_bbox_pred_0_split_1
I0607 20:56:35.678696 13573 net.cpp:454] proposal <- im_info_input-data_1_split_1
I0607 20:56:35.678702 13573 net.cpp:411] proposal -> rpn_rois
I0607 20:56:35.679464 13573 net.cpp:150] Setting up proposal
I0607 20:56:35.679491 13573 net.cpp:157] Top shape: 1 5 (5)
I0607 20:56:35.679496 13573 net.cpp:165] Memory required for data: 1596415316
I0607 20:56:35.679500 13573 layer_factory.hpp:77] Creating layer p2_rpn_conv/3x3
I0607 20:56:35.679512 13573 net.cpp:106] Creating Layer p2_rpn_conv/3x3
I0607 20:56:35.679527 13573 net.cpp:454] p2_rpn_conv/3x3 <- conadd
I0607 20:56:35.679534 13573 net.cpp:411] p2_rpn_conv/3x3 -> p2_rpn/output
I0607 20:56:35.741835 13573 net.cpp:150] Setting up p2_rpn_conv/3x3
I0607 20:56:35.741863 13573 net.cpp:157] Top shape: 1 512 75 125 (4800000)
I0607 20:56:35.741868 13573 net.cpp:165] Memory required for data: 1615615316
I0607 20:56:35.741876 13573 layer_factory.hpp:77] Creating layer p2_rpn_relu/3x3
I0607 20:56:35.741884 13573 net.cpp:106] Creating Layer p2_rpn_relu/3x3
I0607 20:56:35.741888 13573 net.cpp:454] p2_rpn_relu/3x3 <- p2_rpn/output
I0607 20:56:35.741896 13573 net.cpp:397] p2_rpn_relu/3x3 -> p2_rpn/output (in-place)
I0607 20:56:35.742833 13573 net.cpp:150] Setting up p2_rpn_relu/3x3
I0607 20:56:35.742856 13573 net.cpp:157] Top shape: 1 512 75 125 (4800000)
I0607 20:56:35.742859 13573 net.cpp:165] Memory required for data: 1634815316
I0607 20:56:35.742863 13573 layer_factory.hpp:77] Creating layer p2_rpn/output_p2_rpn_relu/3x3_0_split
I0607 20:56:35.742871 13573 net.cpp:106] Creating Layer p2_rpn/output_p2_rpn_relu/3x3_0_split
I0607 20:56:35.742874 13573 net.cpp:454] p2_rpn/output_p2_rpn_relu/3x3_0_split <- p2_rpn/output
I0607 20:56:35.742883 13573 net.cpp:411] p2_rpn/output_p2_rpn_relu/3x3_0_split -> p2_rpn/output_p2_rpn_relu/3x3_0_split_0
I0607 20:56:35.742889 13573 net.cpp:411] p2_rpn/output_p2_rpn_relu/3x3_0_split -> p2_rpn/output_p2_rpn_relu/3x3_0_split_1
I0607 20:56:35.742939 13573 net.cpp:150] Setting up p2_rpn/output_p2_rpn_relu/3x3_0_split
I0607 20:56:35.742954 13573 net.cpp:157] Top shape: 1 512 75 125 (4800000)
I0607 20:56:35.742959 13573 net.cpp:157] Top shape: 1 512 75 125 (4800000)
I0607 20:56:35.742962 13573 net.cpp:165] Memory required for data: 1673215316
I0607 20:56:35.742966 13573 layer_factory.hpp:77] Creating layer p2_rpn_cls_score
I0607 20:56:35.742979 13573 net.cpp:106] Creating Layer p2_rpn_cls_score
I0607 20:56:35.742983 13573 net.cpp:454] p2_rpn_cls_score <- p2_rpn/output_p2_rpn_relu/3x3_0_split_0
I0607 20:56:35.742990 13573 net.cpp:411] p2_rpn_cls_score -> p2_rpn_cls_score
I0607 20:56:35.746284 13573 net.cpp:150] Setting up p2_rpn_cls_score
I0607 20:56:35.746309 13573 net.cpp:157] Top shape: 1 18 75 125 (168750)
I0607 20:56:35.746314 13573 net.cpp:165] Memory required for data: 1673890316
I0607 20:56:35.746320 13573 layer_factory.hpp:77] Creating layer p2_rpn_cls_score_p2_rpn_cls_score_0_split
I0607 20:56:35.746366 13573 net.cpp:106] Creating Layer p2_rpn_cls_score_p2_rpn_cls_score_0_split
I0607 20:56:35.746372 13573 net.cpp:454] p2_rpn_cls_score_p2_rpn_cls_score_0_split <- p2_rpn_cls_score
I0607 20:56:35.746383 13573 net.cpp:411] p2_rpn_cls_score_p2_rpn_cls_score_0_split -> p2_rpn_cls_score_p2_rpn_cls_score_0_split_0
I0607 20:56:35.746393 13573 net.cpp:411] p2_rpn_cls_score_p2_rpn_cls_score_0_split -> p2_rpn_cls_score_p2_rpn_cls_score_0_split_1
I0607 20:56:35.746446 13573 net.cpp:150] Setting up p2_rpn_cls_score_p2_rpn_cls_score_0_split
I0607 20:56:35.746459 13573 net.cpp:157] Top shape: 1 18 75 125 (168750)
I0607 20:56:35.746464 13573 net.cpp:157] Top shape: 1 18 75 125 (168750)
I0607 20:56:35.746469 13573 net.cpp:165] Memory required for data: 1675240316
I0607 20:56:35.746471 13573 layer_factory.hpp:77] Creating layer p2_rpn_bbox_pred
I0607 20:56:35.746485 13573 net.cpp:106] Creating Layer p2_rpn_bbox_pred
I0607 20:56:35.746492 13573 net.cpp:454] p2_rpn_bbox_pred <- p2_rpn/output_p2_rpn_relu/3x3_0_split_1
I0607 20:56:35.746498 13573 net.cpp:411] p2_rpn_bbox_pred -> p2_rpn_bbox_pred
I0607 20:56:35.748571 13573 net.cpp:150] Setting up p2_rpn_bbox_pred
I0607 20:56:35.748595 13573 net.cpp:157] Top shape: 1 36 75 125 (337500)
I0607 20:56:35.748600 13573 net.cpp:165] Memory required for data: 1676590316
I0607 20:56:35.748607 13573 layer_factory.hpp:77] Creating layer p2_rpn_bbox_pred_p2_rpn_bbox_pred_0_split
I0607 20:56:35.748615 13573 net.cpp:106] Creating Layer p2_rpn_bbox_pred_p2_rpn_bbox_pred_0_split
I0607 20:56:35.748622 13573 net.cpp:454] p2_rpn_bbox_pred_p2_rpn_bbox_pred_0_split <- p2_rpn_bbox_pred
I0607 20:56:35.748628 13573 net.cpp:411] p2_rpn_bbox_pred_p2_rpn_bbox_pred_0_split -> p2_rpn_bbox_pred_p2_rpn_bbox_pred_0_split_0
I0607 20:56:35.748636 13573 net.cpp:411] p2_rpn_bbox_pred_p2_rpn_bbox_pred_0_split -> p2_rpn_bbox_pred_p2_rpn_bbox_pred_0_split_1
I0607 20:56:35.748705 13573 net.cpp:150] Setting up p2_rpn_bbox_pred_p2_rpn_bbox_pred_0_split
I0607 20:56:35.748720 13573 net.cpp:157] Top shape: 1 36 75 125 (337500)
I0607 20:56:35.748725 13573 net.cpp:157] Top shape: 1 36 75 125 (337500)
I0607 20:56:35.748728 13573 net.cpp:165] Memory required for data: 1679290316
I0607 20:56:35.748731 13573 layer_factory.hpp:77] Creating layer p2_rpn_cls_score_reshape
I0607 20:56:35.748739 13573 net.cpp:106] Creating Layer p2_rpn_cls_score_reshape
I0607 20:56:35.748742 13573 net.cpp:454] p2_rpn_cls_score_reshape <- p2_rpn_cls_score_p2_rpn_cls_score_0_split_0
I0607 20:56:35.748749 13573 net.cpp:411] p2_rpn_cls_score_reshape -> p2_rpn_cls_score_reshape
I0607 20:56:35.748780 13573 net.cpp:150] Setting up p2_rpn_cls_score_reshape
I0607 20:56:35.748792 13573 net.cpp:157] Top shape: 1 2 675 125 (168750)
I0607 20:56:35.748796 13573 net.cpp:165] Memory required for data: 1679965316
I0607 20:56:35.748800 13573 layer_factory.hpp:77] Creating layer p2_rpn_cls_score_reshape_p2_rpn_cls_score_reshape_0_split
I0607 20:56:35.748816 13573 net.cpp:106] Creating Layer p2_rpn_cls_score_reshape_p2_rpn_cls_score_reshape_0_split
I0607 20:56:35.748819 13573 net.cpp:454] p2_rpn_cls_score_reshape_p2_rpn_cls_score_reshape_0_split <- p2_rpn_cls_score_reshape
I0607 20:56:35.748826 13573 net.cpp:411] p2_rpn_cls_score_reshape_p2_rpn_cls_score_reshape_0_split -> p2_rpn_cls_score_reshape_p2_rpn_cls_score_reshape_0_split_0
I0607 20:56:35.748832 13573 net.cpp:411] p2_rpn_cls_score_reshape_p2_rpn_cls_score_reshape_0_split -> p2_rpn_cls_score_reshape_p2_rpn_cls_score_reshape_0_split_1
I0607 20:56:35.748873 13573 net.cpp:150] Setting up p2_rpn_cls_score_reshape_p2_rpn_cls_score_reshape_0_split
I0607 20:56:35.748885 13573 net.cpp:157] Top shape: 1 2 675 125 (168750)
I0607 20:56:35.748890 13573 net.cpp:157] Top shape: 1 2 675 125 (168750)
I0607 20:56:35.748893 13573 net.cpp:165] Memory required for data: 1681315316
I0607 20:56:35.748898 13573 layer_factory.hpp:77] Creating layer p2_rpn-data
I0607 20:56:35.748932 13573 net.cpp:106] Creating Layer p2_rpn-data
I0607 20:56:35.748945 13573 net.cpp:454] p2_rpn-data <- p2_rpn_cls_score_p2_rpn_cls_score_0_split_1
I0607 20:56:35.748951 13573 net.cpp:454] p2_rpn-data <- gt_boxes_input-data_2_split_1
I0607 20:56:35.748956 13573 net.cpp:454] p2_rpn-data <- im_info_input-data_1_split_2
I0607 20:56:35.748960 13573 net.cpp:454] p2_rpn-data <- data_input-data_0_split_2
I0607 20:56:35.748965 13573 net.cpp:411] p2_rpn-data -> p2_rpn_labels
I0607 20:56:35.748971 13573 net.cpp:411] p2_rpn-data -> p2_rpn_bbox_targets
I0607 20:56:35.748977 13573 net.cpp:411] p2_rpn-data -> p2_rpn_bbox_inside_weights
I0607 20:56:35.748982 13573 net.cpp:411] p2_rpn-data -> p2_rpn_bbox_outside_weights
I0607 20:56:35.750275 13573 net.cpp:150] Setting up p2_rpn-data
I0607 20:56:35.750303 13573 net.cpp:157] Top shape: 1 1 675 125 (84375)
I0607 20:56:35.750308 13573 net.cpp:157] Top shape: 1 36 75 125 (337500)
I0607 20:56:35.750311 13573 net.cpp:157] Top shape: 1 36 75 125 (337500)
I0607 20:56:35.750315 13573 net.cpp:157] Top shape: 1 36 75 125 (337500)
I0607 20:56:35.750319 13573 net.cpp:165] Memory required for data: 1685702816
I0607 20:56:35.750329 13573 layer_factory.hpp:77] Creating layer p2_rpn_loss_cls
I0607 20:56:35.750349 13573 net.cpp:106] Creating Layer p2_rpn_loss_cls
I0607 20:56:35.750353 13573 net.cpp:454] p2_rpn_loss_cls <- p2_rpn_cls_score_reshape_p2_rpn_cls_score_reshape_0_split_0
I0607 20:56:35.750360 13573 net.cpp:454] p2_rpn_loss_cls <- p2_rpn_labels
…
I0607 20:56:35.754812 13573 net.cpp:160]     with loss weight 1
I0607 20:56:35.754818 13573 net.cpp:165] Memory required for data: 1685702824
I0607 20:56:35.754822 13573 layer_factory.hpp:77] Creating layer p2_rpn_cls_prob
I0607 20:56:35.754832 13573 net.cpp:106] Creating Layer p2_rpn_cls_prob
I0607 20:56:35.754853 13573 net.cpp:454] p2_rpn_cls_prob <- p2_rpn_cls_score_reshape_p2_rpn_cls_score_reshape_0_split_1
I0607 20:56:35.754861 13573 net.cpp:411] p2_rpn_cls_prob -> p2_rpn_cls_prob
I0607 20:56:35.755128 13573 net.cpp:150] Setting up p2_rpn_cls_prob
I0607 20:56:35.755146 13573 net.cpp:157] Top shape: 1 2 675 125 (168750)
I0607 20:56:35.755151 13573 net.cpp:165] Memory required for data: 1686377824
I0607 20:56:35.755154 13573 layer_factory.hpp:77] Creating layer p2_rpn_cls_prob_reshape
I0607 20:56:35.755163 13573 net.cpp:106] Creating Layer p2_rpn_cls_prob_reshape
I0607 20:56:35.755167 13573 net.cpp:454] p2_rpn_cls_prob_reshape <- p2_rpn_cls_prob
I0607 20:56:35.755172 13573 net.cpp:411] p2_rpn_cls_prob_reshape -> p2_rpn_cls_prob_reshape
I0607 20:56:35.755208 13573 net.cpp:150] Setting up p2_rpn_cls_prob_reshape
I0607 20:56:35.755220 13573 net.cpp:157] Top shape: 1 18 75 125 (168750)
I0607 20:56:35.755224 13573 net.cpp:165] Memory required for data: 1687052824
I0607 20:56:35.755228 13573 layer_factory.hpp:77] Creating layer p2_proposal
I0607 20:56:35.755260 13573 net.cpp:106] Creating Layer p2_proposal
I0607 20:56:35.755273 13573 net.cpp:454] p2_proposal <- p2_rpn_cls_prob_reshape
I0607 20:56:35.755280 13573 net.cpp:454] p2_proposal <- p2_rpn_bbox_pred_p2_rpn_bbox_pred_0_split_1
I0607 20:56:35.755283 13573 net.cpp:454] p2_proposal <- im_info_input-data_1_split_3
I0607 20:56:35.755290 13573 net.cpp:411] p2_proposal -> p2_rpn_rois
I0607 20:56:35.755800 13573 net.cpp:150] Setting up p2_proposal
I0607 20:56:35.755822 13573 net.cpp:157] Top shape: 1 5 (5)
I0607 20:56:35.755827 13573 net.cpp:165] Memory required for data: 1687052844
I0607 20:56:35.755831 13573 layer_factory.hpp:77] Creating layer data_all
I0607 20:56:35.755839 13573 net.cpp:106] Creating Layer data_all
I0607 20:56:35.755843 13573 net.cpp:454] data_all <- rpn_rois
I0607 20:56:35.755848 13573 net.cpp:454] data_all <- p2_rpn_rois
I0607 20:56:35.755858 13573 net.cpp:411] data_all -> data_all
I0607 20:56:35.755904 13573 net.cpp:150] Setting up data_all
I0607 20:56:35.755918 13573 net.cpp:157] Top shape: 2 5 (10)
I0607 20:56:35.755921 13573 net.cpp:165] Memory required for data: 1687052884
I0607 20:56:35.755925 13573 layer_factory.hpp:77] Creating layer roi-data
I0607 20:56:35.756217 13573 net.cpp:106] Creating Layer roi-data
I0607 20:56:35.756238 13573 net.cpp:454] roi-data <- data_all
I0607 20:56:35.756245 13573 net.cpp:454] roi-data <- gt_boxes_input-data_2_split_2
I0607 20:56:35.756252 13573 net.cpp:411] roi-data -> rois
I0607 20:56:35.756258 13573 net.cpp:411] roi-data -> labels
I0607 20:56:35.756271 13573 net.cpp:411] roi-data -> bbox_targets
I0607 20:56:35.756278 13573 net.cpp:411] roi-data -> bbox_inside_weights
I0607 20:56:35.756283 13573 net.cpp:411] roi-data -> bbox_outside_weights
I0607 20:56:35.757936 13573 net.cpp:150] Setting up roi-data
I0607 20:56:35.757961 13573 net.cpp:157] Top shape: 1 5 (5)
I0607 20:56:35.757966 13573 net.cpp:157] Top shape: 1 1 (1)
I0607 20:56:35.757971 13573 net.cpp:157] Top shape: 1 84 (84)
I0607 20:56:35.757974 13573 net.cpp:157] Top shape: 1 84 (84)
I0607 20:56:35.757978 13573 net.cpp:157] Top shape: 1 84 (84)
I0607 20:56:35.757982 13573 net.cpp:165] Memory required for data: 1687053916
I0607 20:56:35.757985 13573 layer_factory.hpp:77] Creating layer roi_pool5
I0607 20:56:35.757998 13573 net.cpp:106] Creating Layer roi_pool5
I0607 20:56:35.758009 13573 net.cpp:454] roi_pool5 <- conv5_3_relu5_3_0_split_1
I0607 20:56:35.758016 13573 net.cpp:454] roi_pool5 <- rois
I0607 20:56:35.758021 13573 net.cpp:411] roi_pool5 -> pool5
I0607 20:56:35.758031 13573 roi_pooling_layer.cpp:30] Spatial scale: 0.0625
I0607 20:56:35.758086 13573 net.cpp:150] Setting up roi_pool5
I0607 20:56:35.758100 13573 net.cpp:157] Top shape: 1 512 7 7 (25088)
I0607 20:56:35.758105 13573 net.cpp:165] Memory required for data: 1687154268
I0607 20:56:35.758107 13573 layer_factory.hpp:77] Creating layer fc6
I0607 20:56:35.758117 13573 net.cpp:106] Creating Layer fc6
I0607 20:56:35.758121 13573 net.cpp:454] fc6 <- pool5
I0607 20:56:35.758127 13573 net.cpp:411] fc6 -> fc6
I0607 20:56:36.032600 13573 net.cpp:150] Setting up fc6
I0607 20:56:36.032660 13573 net.cpp:157] Top shape: 1 4096 (4096)
I0607 20:56:36.032665 13573 net.cpp:165] Memory required for data: 1687170652
I0607 20:56:36.032681 13573 layer_factory.hpp:77] Creating layer relu6
I0607 20:56:36.032697 13573 net.cpp:106] Creating Layer relu6
I0607 20:56:36.032704 13573 net.cpp:454] relu6 <- fc6
I0607 20:56:36.032716 13573 net.cpp:397] relu6 -> fc6 (in-place)
I0607 20:56:36.033907 13573 net.cpp:150] Setting up relu6
I0607 20:56:36.033928 13573 net.cpp:157] Top shape: 1 4096 (4096)
I0607 20:56:36.033932 13573 net.cpp:165] Memory required for data: 1687187036
I0607 20:56:36.033937 13573 layer_factory.hpp:77] Creating layer drop6
I0607 20:56:36.033951 13573 net.cpp:106] Creating Layer drop6
I0607 20:56:36.033972 13573 net.cpp:454] drop6 <- fc6
I0607 20:56:36.033982 13573 net.cpp:397] drop6 -> fc6 (in-place)
I0607 20:56:36.034023 13573 net.cpp:150] Setting up drop6
I0607 20:56:36.034037 13573 net.cpp:157] Top shape: 1 4096 (4096)
I0607 20:56:36.034041 13573 net.cpp:165] Memory required for data: 1687203420
I0607 20:56:36.034045 13573 layer_factory.hpp:77] Creating layer fc7
I0607 20:56:36.034054 13573 net.cpp:106] Creating Layer fc7
I0607 20:56:36.034059 13573 net.cpp:454] fc7 <- fc6
I0607 20:56:36.034063 13573 net.cpp:411] fc7 -> fc7
I0607 20:56:36.076436 13573 net.cpp:150] Setting up fc7
I0607 20:56:36.076491 13573 net.cpp:157] Top shape: 1 4096 (4096)
I0607 20:56:36.076498 13573 net.cpp:165] Memory required for data: 1687219804
I0607 20:56:36.076510 13573 layer_factory.hpp:77] Creating layer relu7
I0607 20:56:36.076531 13573 net.cpp:106] Creating Layer relu7
I0607 20:56:36.076550 13573 net.cpp:454] relu7 <- fc7
I0607 20:56:36.076557 13573 net.cpp:397] relu7 -> fc7 (in-place)
I0607 20:56:36.076874 13573 net.cpp:150] Setting up relu7
I0607 20:56:36.076889 13573 net.cpp:157] Top shape: 1 4096 (4096)
I0607 20:56:36.076894 13573 net.cpp:165] Memory required for data: 1687236188
I0607 20:56:36.076897 13573 layer_factory.hpp:77] Creating layer drop7
I0607 20:56:36.076910 13573 net.cpp:106] Creating Layer drop7
I0607 20:56:36.076913 13573 net.cpp:454] drop7 <- fc7
I0607 20:56:36.076920 13573 net.cpp:397] drop7 -> fc7 (in-place)
I0607 20:56:36.076972 13573 net.cpp:150] Setting up drop7
I0607 20:56:36.076984 13573 net.cpp:157] Top shape: 1 4096 (4096)
I0607 20:56:36.076988 13573 net.cpp:165] Memory required for data: 1687252572
I0607 20:56:36.076992 13573 layer_factory.hpp:77] Creating layer fc7_drop7_0_split
I0607 20:56:36.076997 13573 net.cpp:106] Creating Layer fc7_drop7_0_split
I0607 20:56:36.077002 13573 net.cpp:454] fc7_drop7_0_split <- fc7
I0607 20:56:36.077008 13573 net.cpp:411] fc7_drop7_0_split -> fc7_drop7_0_split_0
I0607 20:56:36.077015 13573 net.cpp:411] fc7_drop7_0_split -> fc7_drop7_0_split_1
I0607 20:56:36.077071 13573 net.cpp:150] Setting up fc7_drop7_0_split
I0607 20:56:36.077082 13573 net.cpp:157] Top shape: 1 4096 (4096)
I0607 20:56:36.077087 13573 net.cpp:157] Top shape: 1 4096 (4096)
I0607 20:56:36.077090 13573 net.cpp:165] Memory required for data: 1687285340
I0607 20:56:36.077095 13573 layer_factory.hpp:77] Creating layer cls_score
I0607 20:56:36.077105 13573 net.cpp:106] Creating Layer cls_score
I0607 20:56:36.077109 13573 net.cpp:454] cls_score <- fc7_drop7_0_split_0
I0607 20:56:36.077116 13573 net.cpp:411] cls_score -> cls_score
I0607 20:56:36.079362 13573 net.cpp:150] Setting up cls_score
I0607 20:56:36.079380 13573 net.cpp:157] Top shape: 1 21 (21)
I0607 20:56:36.079385 13573 net.cpp:165] Memory required for data: 1687285424
I0607 20:56:36.079391 13573 layer_factory.hpp:77] Creating layer bbox_pred
I0607 20:56:36.079397 13573 net.cpp:106] Creating Layer bbox_pred
I0607 20:56:36.079401 13573 net.cpp:454] bbox_pred <- fc7_drop7_0_split_1
I0607 20:56:36.079409 13573 net.cpp:411] bbox_pred -> bbox_pred
I0607 20:56:36.088384 13573 net.cpp:150] Setting up bbox_pred
I0607 20:56:36.088404 13573 net.cpp:157] Top shape: 1 84 (84)
I0607 20:56:36.088409 13573 net.cpp:165] Memory required for data: 1687285760
I0607 20:56:36.088418 13573 layer_factory.hpp:77] Creating layer loss_cls
I0607 20:56:36.088424 13573 net.cpp:106] Creating Layer loss_cls
I0607 20:56:36.088428 13573 net.cpp:454] loss_cls <- cls_score
I0607 20:56:36.088434 13573 net.cpp:454] loss_cls <- labels
I0607 20:56:36.088439 13573 net.cpp:411] loss_cls -> loss_cls
…
           'RPN_POST_NMS_TOP_N': 2000,
           'RPN_PRE_NMS_TOP_N': 12000,
           'SCALES': [600],
           'SNAPSHOT_INFIX': '',
           'SNAPSHOT_ITERS': 10000,
           'USE_FLIPPED': True,
           'USE_PREFETCH': False},
 'USE_GPU_NMS': True}
WARNING: Logging before InitGoogleLogging() is written to STDERR
I0608 09:29:33.376579  6458 net.cpp:49] Initializing net from parameters: 
name: "VGG_ILSVRC_16_layers"
input: "data"
input: "im_info"
state {
  phase: TEST
}
input_shape {
  dim: 1
  dim: 3
  dim: 224
  dim: 224
}
input_shape {
  dim: 1
  dim: 3
}
layer {
  name: "conv1_1"
  type: "Convolution"
  bottom: "data"
  top: "conv1_1"
  param {
    lr_mult: 0
    decay_mult: 0
  }
  param {
    lr_mult: 0
    decay_mult: 0
  }
  convolution_param {
    num_output: 64
    pad: 1
    kernel_size: 3
  }
}
layer {
  name: "relu1_1"
  type: "ReLU"
  bottom: "conv1_1"
  top: "conv1_1"
}
layer {
  name: "conv1_2"
  type: "Convolution"
  bottom: "conv1_1"
  top: "conv1_2"
  param {
    lr_mult: 0
    decay_mult: 0
  }
  param {
    lr_mult: 0
    decay_mult: 0
  }
  convolution_param {
    num_output: 64
    pad: 1
    kernel_size: 3
  }
}
layer {
  name: "relu1_2"
  type: "ReLU"
  bottom: "conv1_2"
  top: "conv1_2"
}
layer {
  name: "pool1"
  type: "Pooling"
  bottom: "conv1_2"
  top: "pool1"
  pooling_param {
    pool: MAX
    kernel_size: 2
    stride: 2
  }
}
layer {
  name: "conv2_1"
  type: "Convolution"
  bottom: "pool1"
  top: "conv2_1"
  param {
    lr_mult: 0
    decay_mult: 0
  }
  param {
    lr_mult: 0
    decay_mult: 0
  }
  convolution_param {
    num_output: 128
    pad: 1
    kernel_size: 3
  }
}
layer {
  name: "relu2_1"
  type: "ReLU"
  bottom: "conv2_1"
  top: "conv2_1"
}
layer {
  name: "conv2_2"
  type: "Convolution"
  bottom: "conv2_1"
  top: "conv2_2"
  param {
    lr_mult: 0
    decay_mult: 0
  }
  param {
    lr_mult: 0
    decay_mult: 0
  }
  convolution_param {
    num_output: 128
    pad: 1
    kernel_size: 3
  }
}
layer {
  name: "relu2_2"
  type: "ReLU"
  bottom: "conv2_2"
  top: "conv2_2"
}
layer {
  name: "pool2"
  type: "Pooling"
  bottom: "conv2_2"
  top: "pool2"
  pooling_param {
    pool: MAX
    kernel_size: 2
    stride: 2
  }
}
layer {
  name: "conv3_1"
  type: "Convolution"
  bottom: "pool2"
  top: "conv3_1"
  param {
    lr_mult: 1
  }
  param {
    lr_mult: 2
  }
  convolution_param {
    num_output: 256
    pad: 1
    kernel_size: 3
  }
}
layer {
  name: "relu3_1"
  type: "ReLU"
  bottom: "conv3_1"
  top: "conv3_1"
}
layer {
  name: "conv3_2"
  type: "Convolution"
  bottom: "conv3_1"
  top: "conv3_2"
  param {
    lr_mult: 1
  }
  param {
    lr_mult: 2
  }
  convolution_param {
    num_output: 256
    pad: 1
    kernel_size: 3
  }
}
layer {
  name: "relu3_2"
  type: "ReLU"
  bottom: "conv3_2"
  top: "conv3_2"
}
layer {
  name: "conv3_3"
  type: "Convolution"
  bottom: "conv3_2"
  top: "conv3_3"
  param {
    lr_mult: 1
  }
  param {
    lr_mult: 2
  }
  convolution_param {
    num_output: 256
    pad: 1
    kernel_size: 3
  }
}
layer {
  name: "relu3_3"
  type: "ReLU"
  bottom: "conv3_3"
  top: "conv3_3"
}
layer {
  name: "pool3"
  type: "Pooling"
  bottom: "conv3_3"
  top: "pool3"
  pooling_param {
    pool: MAX
    kernel_size: 2
    stride: 2
  }
}
layer {
  name: "conv4_1"
  type: "Convolution"
  bottom: "pool3"
  top: "conv4_1"
  param {
    lr_mult: 1
  }
  param {
    lr_mult: 2
  }
  convolution_param {
    num_output: 512
    pad: 1
    kernel_size: 3
  }
}
layer {
  name: "relu4_1"
  type: "ReLU"
  bottom: "conv4_1"
  top: "conv4_1"
}
layer {
  name: "conv4_2"
  type: "Convolution"
  bottom: "conv4_1"
  top: "conv4_2"
  param {
    lr_mult: 1
  }
  param {
    lr_mult: 2
  }
  convolution_param {
    num_output: 512
    pad: 1
    kernel_size: 3
  }
}
layer {
  name: "relu4_2"
  type: "ReLU"
  bottom: "conv4_2"
  top: "conv4_2"
}
layer {
  name: "conv4_3"
  type: "Convolution"
  bottom: "conv4_2"
  top: "conv4_3"
  param {
    lr_mult: 1
  }
  param {
    lr_mult: 2
  }
  convolution_param {
    num_output: 512
    pad: 1
    kernel_size: 3
  }
}
layer {
  name: "relu4_3"
  type: "ReLU"
  bottom: "conv4_3"
  top: "conv4_3"
}
layer {
  name: "pool4"
  type: "Pooling"
  bottom: "conv4_3"
  top: "pool4"
  pooling_param {
    pool: MAX
    kernel_size: 2
    stride: 2
  }
}
layer {
  name: "conv5_1"
  type: "Convolution"
  bottom: "pool4"
  top: "conv5_1"
  param {
    lr_mult: 1
  }
  param {
    lr_mult: 2
  }
  convolution_param {
    num_output: 512
    pad: 1
    kernel_size: 3
  }
}
layer {
  name: "relu5_1"
  type: "ReLU"
  bottom: "conv5_1"
  top: "conv5_1"
}
layer {
  name: "conv5_2"
  type: "Convolution"
  bottom: "conv5_1"
  top: "conv5_2"
  param {
    lr_mult: 1
  }
  param {
    lr_mult: 2
  }
  convolution_param {
    num_output: 512
    pad: 1
    kernel_size: 3
  }
}
layer {
  name: "relu5_2"
  type: "ReLU"
  bottom: "conv5_2"
  top: "conv5_2"
}
layer {
  name: "conv5_3"
  type: "Convolution"
  bottom: "conv5_2"
  top: "conv5_3"
  param {
    lr_mult: 1
  }
  param {
    lr_mult: 2
  }
  convolution_param {
    num_output: 512
    pad: 1
    kernel_size: 3
  }
}
layer {
  name: "relu5_3"
  type: "ReLU"
  bottom: "conv5_3"
  top: "conv5_3"
}
layer {
  name: "p1_conv"
  type: "Convolution"
  bottom: "conv5_3"
  top: "p1_conv"
  param {
    lr_mult: 1
  }
  param {
    lr_mult: 2
  }
  convolution_param {
    num_output: 256
    pad: 1
    kernel_size: 3
  }
}
layer {
  name: "p1_upsample"
  type: "Deconvolution"
  bottom: "p1_conv"
  top: "p1_upsample"
  param {
    lr_mult: 0
    decay_mult: 0
  }
  convolution_param {
    num_output: 256
    bias_term: false
    pad: 0
    kernel_size: 1
    group: 256
    stride: 2
    weight_filler {
      type: "bilinear"
    }
  }
}
layer {
  name: "p2_conv"
  type: "Convolution"
  bottom: "conv4_3"
  top: "p2_conv"
  param {
    lr_mult: 1
  }
  param {
    lr_mult: 2
  }
  convolution_param {
    num_output: 256
    pad: 1
    kernel_size: 3
  }
}
layer {
  name: "conadd"
  type: "Concat"
  bottom: "p1_upsample"
  bottom: "p2_conv"
  top: "conadd"
}
layer {
  name: "rpn_conv/3x3"
  type: "Convolution"
  bottom: "p1_conv"
  top: "rpn/output"
  param {
    lr_mult: 1
    decay_mult: 1
  }
  param {
    lr_mult: 2
    decay_mult: 0
  }
  convolution_param {
    num_output: 512
    pad: 1
    kernel_size: 3
    stride: 1
    weight_filler {
      type: "gaussian"
      std: 0.01
    }
    bias_filler {
      type: "constant"
      value: 0
    }
  }
}
layer {
  name: "rpn_relu/3x3"
  type: "ReLU"
  bottom: "rpn/output"
  top: "rpn/output"
}
layer {
  name: "rpn_cls_score"
  type: "Convolution"
  bottom: "rpn/output"
  top: "rpn_cls_score"
  param {
    lr_mult: 1
    decay_mult: 1
  }
  param {
    lr_mult: 2
    decay_mult: 0
  }
  convolution_param {
    num_output: 18
    pad: 0
    kernel_size: 1
    stride: 1
    weight_filler {
      type: "gaussian"
      std: 0.01
    }
    bias_filler {
      type: "constant"
      value: 0
    }
  }
}
layer {
  name: "rpn_bbox_pred"
  type: "Convolution"
  bottom: "rpn/output"
  top: "rpn_bbox_pred"
  param {
    lr_mult: 1
    decay_mult: 1
  }
  param {
    lr_mult: 2
    decay_mult: 0
  }
  convolution_param {
    num_output: 36
    pad: 0
    kernel_size: 1
    stride: 1
    weight_filler {
      type: "gaussian"
      std: 0.01
    }
    bias_filler {
      type: "constant"
      value: 0
    }
  }
}
layer {
  name: "rpn_cls_score_reshape"
  type: "Reshape"
  bottom: "rpn_cls_score"
  top: "rpn_cls_score_reshape"
  reshape_param {
    shape {
      dim: 0
      dim: 2
      dim: -1
      dim: 0
    }
  }
}
layer {
  name: "rpn_cls_prob"
  type: "Softmax"
  bottom: "rpn_cls_score_reshape"
  top: "rpn_cls_prob"
}
layer {
  name: "rpn_cls_prob_reshape"
  type: "Reshape"
  bottom: "rpn_cls_prob"
  top: "rpn_cls_prob_reshape"
  reshape_param {
    shape {
      dim: 0
      dim: 18
      dim: -1
      dim: 0
    }
  }
}
layer {
  name: "proposal"
  type: "Python"
  bottom: "rpn_cls_prob_reshape"
  bottom: "rpn_bbox_pred"
  bottom: "im_info"
  top: "rois"
  python_param {
    module: "rpn.proposal_layer"
    layer: "ProposalLayer"
    param_str: "\'feat_stride\': 16"
  }
}
layer {
  name: "p2_rpn_conv/3x3"
  type: "Convolution"
  bottom: "conadd"
  top: "p2_rpn/output"
  param {
    lr_mult: 1
    decay_mult: 1
  }
  param {
    lr_mult: 2
    decay_mult: 0
  }
  convolution_param {
    num_output: 512
    pad: 1
    kernel_size: 3
    stride: 1
    weight_filler {
      type: "gaussian"
      std: 0.01
    }
    bias_filler {
      type: "constant"
      value: 0
    }
  }
}
layer {
  name: "p2_rpn_relu/3x3"
  type: "ReLU"
  bottom: "p2_rpn/output"
  top: "p2_rpn/output"
}
layer {
  name: "p2_rpn_cls_score"
  type: "Convolution"
  bottom: "p2_rpn/output"
  top: "p2_rpn_cls_score"
  param {
    lr_mult: 1
    decay_mult: 1
  }
  param {
    lr_mult: 2
    decay_mult: 0
  }
  convolution_param {
    num_output: 18
    pad: 0
    kernel_size: 1
    stride: 1
    weight_filler {
      type: "gaussian"
      std: 0.01
    }
    bias_filler {
      type: "constant"
      value: 0
    }
  }
}
layer {
  name: "p2_rpn_bbox_pred"
  type: "Convolution"
  bottom: "p2_rpn/output"
  top: "p2_rpn_bbox_pred"
  param {
    lr_mult: 1
    decay_mult: 1
  }
  param {
    lr_mult: 2
    decay_mult: 0
  }
  convolution_param {
    num_output: 36
    pad: 0
    kernel_size: 1
    stride: 1
    weight_filler {
      type: "gaussian"
      std: 0.01
    }
    bias_filler {
      type: "constant"
      value: 0
    }
  }
}
layer {
  name: "p2_rpn_cls_score_reshape"
  type: "Reshape"
  bottom: "p2_rpn_cls_score"
  top: "p2_rpn_cls_score_reshape"
  reshape_param {
    shape {
      dim: 0
      dim: 2
      dim: -1
      dim: 0
    }
  }
}
layer {
  name: "p2_rpn_cls_prob"
  type: "Softmax"
  bottom: "p2_rpn_cls_score_reshape"
  top: "p2_rpn_cls_prob"
}
layer {
  name: "p2_rpn_cls_prob_reshape"
  type: "Reshape"
  bottom: "p2_rpn_cls_prob"
  top: "p2_rpn_cls_prob_reshape"
  reshape_param {
    shape {
      dim: 0
      dim: 18
      dim: -1
      dim: 0
    }
  }
}
layer {
  name: "p2_proposal"
  type: "Python"
  bottom: "p2_rpn_cls_prob_reshape"
  bottom: "p2_rpn_bbox_pred"
  bottom: "p2_im_info"
  top: "p2_rois"
  python_param {
    module: "rpn.proposal_layer"
    layer: "ProposalLayer"
    param_str: "\'feat_stride\': 16"
  }
}
layer {
  name: "data_all"
  type: "Concat"
  bottom: "rois"
  bottom: "p2_rois"
  top: "data_all"
  concat_param {
    axis: 0
  }
}
layer {
  name: "roi_pool5"
  type: "ROIPooling"
  bottom: "conadd"
  bottom: "data_all"
  top: "pool5"
  roi_pooling_param {
    pooled_h: 7
    pooled_w: 7
    spatial_scale: 0.0625
  }
}
layer {
  name: "fc6"
  type: "InnerProduct"
  bottom: "pool5"
  top: "fc6"
  param {
    lr_mult: 1
    decay_mult: 1
  }
  param {
    lr_mult: 2
    decay_mult: 0
  }
  inner_product_param {
    num_output: 4096
  }
}
layer {
  name: "relu6"
  type: "ReLU"
  bottom: "fc6"
  top: "fc6"
}
layer {
  name: "drop6"
  type: "Dropout"
  bottom: "fc6"
  top: "fc6"
  dropout_param {
    dropout_ratio: 0.5
  }
}
layer {
  name: "fc7"
  type: "InnerProduct"
  bottom: "fc6"
  top: "fc7"
  param {
    lr_mult: 1
    decay_mult: 1
  }
  param {
    lr_mult: 2
    decay_mult: 0
  }
  inner_product_param {
    num_output: 4096
  }
}
layer {
  name: "relu7"
  type: "ReLU"
  bottom: "fc7"
  top: "fc7"
}
layer {
  name: "drop7"
  type: "Dropout"
  bottom: "fc7"
  top: "fc7"
  dropout_param {
    dropout_ratio: 0.5
  }
}
layer {
  name: "cls_score"
  type: "InnerProduct"
  bottom: "fc7"
  top: "cls_score"
  param {
    lr_mult: 1
    decay_mult: 1
  }
  param {
    lr_mult: 2
    decay_mult: 0
  }
  inner_product_param {
    num_output: 21
    weight_filler {
      type: "gaussian"
      std: 0.01
    }
    bias_filler {
      type: "constant"
      value: 0
    }
  }
}
layer {
  name: "bbox_pred"
  type: "InnerProduct"
  bottom: "fc7"
  top: "bbox_pred"
  param {
    lr_mult: 1
    decay_mult: 1
  }
  param {
    lr_mult: 2
    decay_mult: 0
  }
  inner_product_param {
    num_output: 84
    weight_filler {
      type: "gaussian"
      std: 0.001
    }
    bias_filler {
      type: "constant"
      value: 0
    }
  }
}
layer {
  name: "cls_prob"
  type: "Softmax"
  bottom: "cls_score"
  top: "cls_prob"
}
F0608 09:29:33.376754  6458 insert_splits.cpp:35] Unknown bottom blob 'p2_im_info' (layer 'p2_proposal', bottom index 2)
*** Check failure stack trace: ***
./experiments/scripts/FP_Net_end2end.sh: line 68:  6458 Aborted                 (core dumped) ./tools/test_net.py --gpu ${GPU_ID} --def models/${PT_DIR}/${NET}/FP_Net_end2end/test.prototxt --net ${NET_FINAL} --imdb ${TEST_IMDB} --cfg experiments/cfgs/FP_Net_end2end.yml ${EXTRA_ARGS}
